2x2_new_model_weights.pth (torch, 27176 bytes, 7 tensors)

fc1.weight f4 [120, 3]
000000 ec c6 d8 40 06 8a b2 3d 93 fd 18 3d c4 d5 6b be
       6.7742825 0.08717732 0.037351202 -0.23030764
000010 6b a6 b4 3e 2c 8a f1 bf 41 d2 0b c0 87 15 63 bd
       0.35283217 -1.8870292 -2.1847079 -0.055440452
000020 cb e4 f6 bd 81 3d 36 bd 4a d7 c6 bf 96 57 8d 3e
       -0.120553575 -0.04449225 -1.5534451 0.27605885
000030 be 96 af be 3e 0f 6d c0 3f 02 d6 bc 8b e1 8a 3f
       -0.34294695 -3.7040553 -0.026124118 1.085008
000040 e4 68 5c bf 3d 6d 37 bf ef 72 ac 3f b5 ec 4a c0
       -0.8609755 -0.7165106 1.3472575 -3.1706975
000050 cb 0f 82 ba dd 49 79 41 2b 02 b7 3c 91 29 8b 3c
       -0.000992292 15.580533 0.022339901 0.016987594
000060 90 e0 18 40 76 c9 04 c0 12 86 18 bc 26 6f 66 c0
       2.3887062 -2.0747962 -0.009309309 -3.600534
000070 0b 35 17 bf fc ab e6 be 2d 39 38 3e 49 63 0a 3d
       -0.5906531 -0.4505309 0.17990561 0.033786092
000080 28 a4 46 3d fc 4a 07 c0 69 83 86 3f 0e ef c8 be
       0.048496395 -2.1139517 1.0508853 -0.39244884
000090 9d 3a da 3c 02 c9 a7 bb 34 ac c3 ba 06 52 53 40
       0.026639277 -0.0051203975 -0.001492864 3.3018813
0000a0 f5 cc 49 3e c5 58 09 3f eb ed 58 3f fe 4b ad be
       0.19707091 0.53651077 0.84738034 -0.3384704
0000b0 01 16 cb 3f e1 f1 94 3f c3 4e 48 3f 25 ed 81 3f
       1.586609 1.1636316 0.7824518 1.0150496
0000c0 a6 80 d7 3e b9 ba 38 bf 5e 3f e2 3e 0b d5 39 be
       0.42090338 -0.72159916 0.4418897 -0.18147676
0000d0 57 65 2e bf a1 29 37 bf 9b 9d ba bf 61 b3 4b 3d
       -0.6812338 -0.71547896 -1.4579347 0.049731616
0000e0 6d 7f c7 3e 3f f7 b4 3f bd 64 82 bf b0 eb 5a 3f
       0.38964406 1.4137954 -1.0186993 0.8551588
0000f0 3c f1 bb 3e 7d 7b 29 bf 0e a5 1f 3f 2a 04 85 be
       0.36707485 -0.66204053 0.6236123 -0.2597974
000100 51 bb 89 bd 78 2c 8e be 21 01 cb bf ac 0f a2 3e
       -0.06725181 -0.27768302 -1.585972 0.31652582
000110 0f 80 af 3d ce ca 05 3f e3 b5 36 3d f3 b3 09 c0
       0.08569347 0.5226258 0.044607054 -2.1516082
000120 43 c7 fc bf 1f de dd be 34 57 a6 3f fd f2 62 bf
       -1.974831 -0.43333527 1.2995362 -0.8865202
000130 39 48 87 3d 5e 6f 54 be 80 f5 dd 3f 9c e9 0a 3f
       0.06605572 -0.20745608 1.7340546 0.5426271
000140 0f cc 84 3f 39 c1 e8 3f 8a 4b a7 3f 45 a2 ba be
       1.0374774 1.8183967 1.3069928 -0.36451927
000150 19 2d 06 c0 fb a5 d8 be b5 5f ce 3e a3 90 cf bf
       -2.0965025 -0.42314133 0.40307394 -1.6216015
000160 af b1 d6 3e 9c d3 31 3f 6b c0 9c 3e cf 70 f1 be
       0.41932437 0.69463515 0.30615553 -0.4715638
000170 2e be 61 be ec db 2d 40 43 87 50 3f 60 21 54 3f
       -0.22045204 2.716548 0.81456393 0.82863426
000180 40 7f 01 c0 60 4e ce be c8 00 9b 3e eb ca 01 40
       -2.0233917 -0.4029417 0.30274034 2.0280101
000190 56 e2 d0 be b4 d5 ba 3f f9 24 10 40 2c 56 7c bf
       -0.4079768 1.4596467 2.2522566 -0.9856899
0001a0 45 ec 32 3d 60 34 d6 3e eb 0e ed be 86 2e 05 3f
       0.043682355 0.41836834 -0.46300444 0.52024114
0001b0 f2 ac 9c 3f 3b c5 8b bf c6 ed 34 3e c6 29 46 c1
       1.2240279 -1.0919565 0.17668828 -12.385199
0001c0 7c bc b1 bc ad 3e cb bc 04 8b 41 bf 1d 2c 50 bf
       -0.021696322 -0.02481016 -0.75602746 -0.8131731
0001d0 a5 ec 7b 3e dd 5b 02 c0 63 99 6d 3f 1a 5b f8 be
       0.24601991 -2.036857 0.92812175 -0.48507005
0001e0 0e 65 36 c0 47 87 da 3e 8d e0 65 bf c4 ab ab 3f
       -2.849918 0.42681333 -0.8979576 1.3411794
0001f0 d5 d9 58 be cd 29 b4 bf 3c e0 05 c0 5c 5c b8 3d
       -0.21176846 -1.4075257 -2.0918112 0.09001991
000200 f4 d7 b0 3f d2 05 07 c0 1b 0f 84 3e 58 14 83 bf
       1.3815904 -2.1097302 0.25792775 -1.0240583
000210 1f 2d 49 c0 d4 cc 16 bf 25 1f 33 bf c0 8d 2e 3f
       -3.143379 -0.5890629 -0.699694 0.68185043
000220 4f f7 15 3d 23 f5 73 bf 64 61 56 40 a8 73 2d bf
       0.036612805 -0.95295924 3.3496943 -0.677546
000230 f9 6f 60 bf da e7 eb be 21 84 4b 3f 77 78 38 3f
       -0.87670857 -0.46075326 0.7949849 0.72058815
000240 24 19 0d be f4 59 57 bf 1a 64 62 3f 86 a6 fe be
       -0.13779122 -0.8412163 0.8843399 -0.49736422
000250 36 02 4c 3e ca 9c 60 bf 8a c8 f6 bc 0a 47 93 3c
       0.19922718 -0.8773924 -0.030124921 0.01797821
000260 f2 68 07 3c 34 21 35 c0 37 0f 81 bf a3 78 20 bf
       0.008264767 -2.8301516 -1.0082768 -0.6268408
000270 76 96 d1 bf 07 aa 3a 3f ff e1 7f 3f 37 39 38 c0
       -1.6374042 0.7291569 0.9995422 -2.878492
000280 25 2c 75 3d 63 87 95 3d 3e 6e d0 bf 7b b9 f2 3e
       0.059856553 0.073012136 -1.6283643 0.47407135
000290 60 ae 2e 3e b3 12 94 bf af 8b 87 be 7f ea b4 3f
       0.17058706 -1.1568207 -0.26473758 1.4134063
0002a0 94 53 3a c1 04 f6 1d bd b9 e8 98 bc e5 9f f0 bf
       -11.645405 -0.038564697 -0.018665658 -1.8798796
0002b0 ec 15 1e 3f a9 d8 20 3f 6f f2 9d 3f 5e 3b 65 3d
       0.617522 0.628306 1.233961 0.05596482
0002c0 74 67 fa 3f bc b1 33 bf e1 aa da 3f 67 10 bd be
       1.9562821 -0.70193076 1.7083398 -0.36926576
0002d0 aa c4 8b bf b7 f5 bb 3e 34 54 63 3e 65 62 e6 bf
       -1.0919392 0.36710903 0.2220009 -1.7998778
0002e0 3c be 42 3f 54 1a 2d 3f 05 82 d5 3f 93 fe 94 bf
       0.76071525 0.676183 1.6680304 -1.164019
0002f0 8e 44 61 be ec ea 04 bc eb 1b 4b 3b 48 31 89 3b
       -0.21998808 -0.00811265 0.0030991982 0.004186783
000300 2c 20 c8 c0 30 f2 9f 3d 45 1a 46 3d e6 64 a1 c0
       -6.253927 0.078098655 0.048364896 -5.0435667
000310 5c 0d 73 be b6 06 be be e9 3a c5 bc 03 d8 e2 bb
       -0.23735565 -0.37114495 -0.024075942 -0.0069227233
000320 a0 a6 bd 3c 2a ab 98 c0 a0 f3 86 be 41 b9 11 3e
       0.023150742 -4.770894 -0.26357746 0.14230825
000330 04 bb a4 3e 33 7a 4e bf 71 e3 02 be c3 5a 77 40
       0.32173932 -0.8065521 -0.12782075 3.8649147
000340 72 6d 35 be f5 0c e8 bd a1 78 06 c0 eb d4 42 bf
       -0.17717531 -0.11330596 -2.1011126 -0.7610614
000350 0b 40 72 3f 70 f8 99 c0 4e 66 91 3e ea 66 23 3f
       0.9462897 -4.811577 0.28398365 0.6382891
000360 cf 83 9d 40 b4 d4 0b bf b4 bc f9 3e 32 25 9e bf
       4.92234 -0.54621434 0.48776782 -1.2355101
000370 b8 8d 11 c0 b7 ff 05 be 91 8c c0 c0 10 15 7d 3e
       -2.2742748 -0.13085829 -6.017159 0.24715066
000380 6f 25 f6 3d 1a 0c 4a bc cf c4 84 3c da df 22 bc
       0.12018859 -0.012331987 0.016207127 -0.009941066
000390 76 cd 99 bf 45 a0 a2 3e 82 3c 56 bd c1 db 43 3f
       -1.2015827 0.317629 -0.0523038 0.7650719
0003a0 39 c4 f6 3e e2 72 f7 3e 77 1d fe 3f 59 6e 37 3f
       0.4819658 0.48329836 1.9852742 0.7165275
0003b0 d0 89 ad be 23 ed d7 3d 0c a5 f8 be b1 33 26 3f
       -0.33894205 0.10543277 -0.4856342 0.64922625
0003c0 90 da 73 c0 71 ed ae be 7c bb ef bd e2 5b 3b 40
       -3.810215 -0.34165528 -0.11705682 2.927483
0003d0 f9 55 21 bf d5 65 18 3f 36 93 22 c0 a7 07 5c 3f
       -0.6302181 0.59530383 -2.540235 0.85949177
0003e0 c5 1c d9 be c1 65 34 bf ca ad aa be 02 7b 12 40
       -0.42404762 -0.70467764 -0.33335716 2.2887578
0003f0 64 d3 00 bf ea 24 13 3f 84 1a ca 3d 9f 8d 5c 3e
       -0.50322556 0.574782 0.09868339 0.21538399

fc1.bias f4 [120]
000000 54 ca 9f bc 24 5d f5 bc 5d 47 38 bf ed 21 d6 bd
       -0.019505657 -0.02995164 -0.7198389 -0.104556896
000010 21 be 80 3d 79 aa 27 be bd fa f7 3c 65 36 6d 3c
       0.06286264 -0.16373624 0.030270929 0.014478301
000020 a5 b6 10 3d d3 be 2d be 5f cd c0 be fc b1 3a ba
       0.035330433 -0.16967325 -0.37656686 -0.00071218587
000030 8a 2d 37 be 62 f1 1f 3d 1a a6 c0 bd 90 76 8f bc
       -0.17888466 0.03904856 -0.09406681 -0.01751259
000040 b7 80 d3 bf 51 f9 a3 bd ae 47 8c 3d 78 ba a4 bd
       -1.6523656 -0.08006538 0.06849609 -0.080433786
000050 c9 00 82 be dd a2 e3 be d1 08 c7 bd b5 ce 53 ba
       -0.25391224 -0.44460192 -0.097184785 -0.0008079813
000060 c9 aa af 3c b6 7e 70 be 7a 8e 3d be 1e 2e 02 3b
       0.021443741 -0.23485836 -0.18511382 0.0019863914
000070 e6 c0 14 3c ef b9 82 be 1c d3 df bf 19 5e 56 bf
       0.009079194 -0.2553248 -1.74863 -0.8373733
000080 58 22 05 be 22 74 45 3b bf 01 7f 3d df 83 37 c0
       -0.13001382 0.0030129035 0.062257525 -2.8674238
000090 e8 58 18 bd d4 57 05 3e e7 cf a6 bd 98 e4 1c bf
       -0.037194163 0.13021785 -0.08145123 -0.61286306
0000a0 a0 2f 3e 36 3e e1 79 bd 31 83 67 3c 1a 11 ed bb
       2.8339928e-06 -0.061005823 0.0141304 -0.0072347047
0000b0 a5 54 ba 3c 6c fe 35 3e 4a a0 f5 3c 61 1a 1c bd
       0.02274544 0.17772835 0.029983658 -0.038111094
0000c0 b8 5b 51 3b ad 59 11 be 21 f3 ab be b7 87 dc bf
       0.0031945538 -0.14194365 -0.3358393 -1.7228917
0000d0 ce 8b 8d bd 26 e2 32 bd 54 ed 4d 3e 1d ee cd 3c
       -0.06911431 -0.043672703 0.20110065 0.025137955
0000e0 02 8d 99 3d 7e 71 80 bf 52 4e b0 3c 03 cb d9 3b
       0.07497598 -1.0034635 0.021521721 0.0066465153
0000f0 03 9a 10 bc 84 b3 46 3c 2d 93 38 bd 92 01 a2 bd
       -0.008825782 0.012127761 -0.045062233 -0.07910456
000100 0d 62 25 be 4c e4 06 3e f0 5f 7c be 26 40 96 bd
       -0.16150685 0.13173026 -0.24645972 -0.07336454
000110 df cb 07 bf b0 60 86 be 0f 50 0a bb 31 86 83 bd
       -0.5304546 -0.26245642 -0.0021104848 -0.06422079
000120 ac 62 3c bd 9b 56 2b bd 4a f6 48 3d 2c e7 69 be
       -0.04599254 -0.04183064 0.049063005 -0.22842091
000130 f4 dc 96 bf 04 7b 40 3f 9a cd d0 3b 67 9f 8e bf
       -1.178618 0.75187707 0.006372166 -1.1142396
000140 80 66 e3 b8 ca 2c 81 ba d5 68 a5 bb e2 b9 62 3d
       -0.000108432956 -0.0009855267 -0.0050478973 0.055353053
000150 30 d9 07 c0 3f 52 fe be ce 33 c7 bd 7b 11 8c 3d
       -2.122631 -0.49672124 -0.09726678 0.06839272
000160 49 9a 35 3b 2f ec bb be 6f b1 23 bf 1b 0d a7 bd
       0.002771037 -0.3670363 -0.6394262 -0.081567965
000170 7c 62 03 c0 c7 27 4e 3e b8 28 1f bd 7a ea e4 3d
       -2.052886 0.20132361 -0.03885719 0.11177535
000180 b1 59 2c bd f8 d9 08 3e cc 94 bb bd 54 09 86 3d
       -0.042077724 0.13364398 -0.0915924 0.06544748
000190 79 9e 26 3e 0d 9c af 3c fb ce 2b be 70 29 a9 bd
       0.1627139 0.021436715 -0.16778176 -0.08259857
0001a0 de 7d a4 bd 5e a4 9b 3d 61 78 54 bc 67 07 03 3e
       -0.0803182 0.0759971 -0.012968154 0.12795793
0001b0 e6 36 a0 bd f2 25 30 bc 5f e3 94 bd c6 75 45 3d
       -0.07822971 -0.010751234 -0.0726993 0.04820802
0001c0 a5 78 04 3f 48 17 20 3d ac b7 cb 3c 05 f6 84 be
       0.5174659 0.039084703 0.024867855 -0.25968948
0001d0 8d 74 a7 bb 97 b4 3a be 52 b9 9e bc e1 c9 0a c0
       -0.0051103295 -0.18232952 -0.019375477 -2.1685717

fc2.weight f4 [40, 120]
000000 9e 0a 88 3c b9 34 99 3d 09 fc 2c bb b9 66 01 be
       0.016606625 0.07480759 -0.0026395342 -0.12636842
000010 eb 8f 20 bd e0 c1 51 bd a0 0d b4 bd 8f 52 1f ba
       -0.03919975 -0.051210284 -0.08791661 -0.0006077671
000020 24 d1 d1 bd 6d eb cf bd 5b 4f c3 39 e6 92 ea 3a
       -0.102449685 -0.10152326 0.00037252423 0.0017896562
000030 22 1f 5b bd e5 62 a5 bd 35 39 d0 bc c8 a4 52 bd
       -0.053496487 -0.08075503 -0.025417903 -0.05142668
000040 72 cc b1 bd ea 73 3b be 03 c2 d7 bd 90 a6 cd bd
       -0.08681573 -0.18305936 -0.10535052 -0.10041535
000050 18 be 13 bd bf 30 f8 3b 1e 2f 1b bd 03 98 af 3d
       -0.03606996 0.0075741704 -0.03788673 0.08573916
000060 52 80 26 be 6e ae 2c 3d e7 d5 44 3d 95 2e ec bc
       -0.16259888 0.042158537 0.048055556 -0.028830806
000070 6f 97 03 be 33 6a 8c 3b 98 bf ec bd 2b 04 25 bd
       -0.12850736 0.004285121 -0.11559981 -0.040287178
000080 f1 1f 7d ba 83 5e 60 bd 20 4b db bd f0 52 99 bd
       -0.0009655944 -0.054777633 -0.10707688 -0.07486522
000090 94 60 77 bd 7d 09 95 3b db 71 4b bb 2a e0 16 bc
       -0.06039484 0.00454825 -0.0031043205 -0.009208718
0000a0 8a 37 b0 3d 96 23 95 bb 20 40 b4 bd a7 78 28 3d
       0.08604343 -0.0045513613 -0.088012934 0.041130688
0000b0 13 7e 02 bc 57 56 d3 3c 14 17 0d bc 13 ce b2 bb
       -0.007964629 0.025798006 -0.008611459 -0.005456695
0000c0 03 c2 a9 bd 94 e0 1d 3d 61 46 d3 bc c6 be ef 3c
       -0.08288958 0.038544253 -0.025790395 0.029265773
0000d0 ab b0 f8 bd 7c 35 27 bd 16 73 87 bd ec 66 1e be
       -0.12143072 -0.04082249 -0.06613748 -0.15468949
0000e0 e1 e9 8d bd 95 7e 59 bc e0 58 b6 bd 61 57 04 bd
       -0.069293745 -0.013274808 -0.0890367 -0.032309894
0000f0 ca d2 cc 3c be 6e 81 bc dc cd 3b 3d ef 70 2d bd
       0.025002856 -0.015799876 0.04585062 -0.04234403
000100 e3 e8 0f be 84 2d f3 bd f3 bc 31 bc 13 f1 c4 bd
       -0.14053683 -0.11873916 -0.010848272 -0.09616294
000110 b3 f1 66 bd c2 15 5b bd f5 33 11 be 5d 74 d4 3b
       -0.056382846 -0.053487547 -0.14179976 0.006483598
000120 5d 8c 13 be f1 b7 bc bc 0c 1c d7 bd bb 4a 81 bd
       -0.14409013 -0.023036929 -0.105033964 -0.06313082
000130 27 a4 92 bc 36 9a e2 bd ba 94 26 3d a7 c0 88 bd
       -0.01790054 -0.1106457 0.04066918 -0.066773705
000140 12 7e 0a be 9a 49 58 bd c0 52 60 bd 95 fe a5 bc
       -0.13524655 -0.052804567 -0.054766417 -0.020262996
000150 b0 c0 50 bc 67 3a 99 bd fa 27 3e bd 97 16 f3 bc
       -0.012741253 -0.074818425 -0.046424843 -0.029673858
000160 47 7b 6b bd 5b 44 c8 bd f3 5e 9a 3c 62 10 61 3d
       -0.057490613 -0.09778663 0.018844103 0.054947264
000170 12 c0 b6 bd 69 5e f7 bc 39 cf 9e bc 15 0d 0b bd
       -0.08923353 -0.030196385 -0.01938592 -0.033948023
000180 17 6b cf bb f6 36 49 bd 11 5c a8 bd 42 0a a3 bd
       -0.006329905 -0.04912468 -0.08220685 -0.07960941
000190 f5 d6 77 bd e2 ee 97 bd 68 8e 10 be a6 71 94 3c
       -0.060507733 -0.0741861 -0.14116824 0.018120598
0001a0 ed d0 34 3b 5c 5e 99 bd 18 2a 0d be 13 14 57 bd
       0.002759035 -0.07488701 -0.13785589 -0.05250938
0001b0 aa e5 1f be 38 1d 21 be 36 c1 ea bc 82 84 bd bc
       -0.15614954 -0.15733802 -0.028656583 -0.023134474
0001c0 18 85 73 bd bf a7 95 bc c6 fb c8 bc 59 47 fe bd
       -0.0594531 -0.018268464 -0.024534117 -0.12415952
0001d0 44 51 a4 bd 00 9f 19 bc c8 48 da bd 09 76 e7 bd
       -0.08023313 -0.009376287 -0.10658413 -0.1130181
0001e0 dc 82 ba bd 01 11 df bc 7c 5c 6d bd d7 d0 9d bd
       -0.09106991 -0.027229788 -0.057949528 -0.07705849
0001f0 71 94 7c 3c 00 dd 49 bd b9 41 04 be e1 5d b7 bc
       0.015416251 -0.049283028 -0.12915696 -0.022383632
000200 8a 02 54 bd c6 7f 97 3b 52 6f 43 3d ad 83 d5 bc
       -0.051760234 0.004623386 0.047713585 -0.026063764
000210 cc 81 c9 bd fc 22 0b bd 30 64 32 3d f1 53 a0 bd
       -0.0983921 -0.03396891 0.043552577 -0.078285106
000220 f6 de 40 bc 38 89 d6 3c c1 8e ca bd 0f 7c 64 bd
       -0.011771908 0.026188478 -0.098905094 -0.055782374
000230 c8 6b 80 bc ae 6c fc 3c 1d 1e ae bb e3 40 90 3d
       -0.015676394 0.030813541 -0.0053136484 0.07043626
000240 11 ef 44 bd 2e 57 74 bd 47 d2 87 bd a3 3e 22 bc
       -0.048079554 -0.059653454 -0.06631904 -0.009902629
000250 0e aa 22 3d 2e 49 09 bc 1a e5 87 3d be bf 67 bd
       0.039712958 -0.008379264 0.066354945 -0.056579344
000260 a8 4c ad bd 0e fa 95 3d eb ca d0 bd 60 7c 93 3d
       -0.08461887 0.07323085 -0.101949535 0.07201457
000270 eb 99 18 3d 9d fc 13 3d 80 7c 60 39 2e e2 18 3d
       0.037256163 0.036129583 0.00021408685 0.037325077
000280 b5 92 1f 3d 99 d8 c6 bb ba b2 a1 bd 4d 65 c3 bd
       0.03895827 -0.006068301 -0.078954175 -0.09540806
000290 34 da a7 bd 0a 80 6d bd 4c 7e 09 3d f8 fc d3 bd
       -0.08195916 -0.057983436 0.03356771 -0.10350984
0002a0 df 65 6f bd f8 b0 69 3a 9b e8 ba bd c7 b4 d6 bc
       -0.05844676 0.0008914615 -0.09126397 -0.026209248
0002b0 69 1a 47 3d 17 35 80 bc 56 3f bf 3c 5f d4 52 bd
       0.04860917 -0.015650315 0.02334563 -0.051472064
0002c0 2b 0d 1c 3b 98 ea 49 3d a4 51 16 3d e0 19 76 bd
       0.002381156 0.04929599 0.036698952 -0.06008327
0002d0 33 8b 7e bc fb d3 5a 3b 0c 6d 50 3c 4a c0 8e 3c
       -0.015536117 0.003339051 0.012721311 0.017425675
0002e0 fe ca 8f 3c b4 91 be 3c a6 40 2d 3d 50 75 06 bd
       0.017552849 0.023262836 0.04229798 -0.03282672
0002f0 a2 97 04 bd 7e a8 a0 3d ac fa 44 bc 5d ef 7c 3c
       -0.03237117 0.07844637 -0.012022655 0.015437928
000300 64 3d ae bd 8d 52 c8 bd a2 fd 4f 3c 3f 45 9c bd
       -0.08507803 -0.0978137 0.012694748 -0.07630395
000310 05 2b 7a bc 83 9e 0c 3d 07 63 3d bd 27 df 87 bd
       -0.015269046 0.034330856 -0.046237018 -0.0663436
000320 0e 49 26 bd 91 11 07 bd e8 aa 83 3c 90 64 1e 3c
       -0.040597014 -0.032975737 0.016072705 0.009667531
000330 e8 70 95 bd 40 11 97 bc e3 0e 34 3d 46 89 69 bd
       -0.07296926 -0.018440843 0.04395951 -0.05701568
000340 e1 7f 64 3d 06 74 27 bd 11 32 80 3d e2 b9 b5 bc
       0.055786017 -0.040882133 0.062595494 -0.022183362
000350 66 60 f5 bc f1 e6 ed ba 5c ec 74 3c c6 16 b9 bd
       -0.029953193 -0.0018150491 0.014948931 -0.09037547
000360 a8 de 90 3d 1d 4e 7f bd 52 98 a5 3d 12 e8 8d bd
       0.07073718 -0.062330354 0.080856934 -0.069290295
000370 ad 12 6c bc 93 c3 b7 bb 15 88 82 bd 06 ef 55 bc
       -0.0144087495 -0.005608031 -0.06373612 -0.013057476
000380 d7 de 47 3d db 04 03 3c 51 64 ad bd 49 37 b8 bd
       0.0487965 0.007996763 -0.084663995 -0.0899492
000390 df bf 53 3d 9f ba 97 bc 9b 43 98 bc 4c 12 75 bd
       0.051696654 -0.018521605 -0.018586924 -0.059831902
0003a0 53 b5 54 bd 55 75 63 bc 15 7d e0 3c d7 43 0d bd
       -0.051930737 -0.013882955 0.027403394 -0.034488525
0003b0 57 51 00 bd 90 ed 03 3d 19 f4 5e bb 0f c1 40 bb
       -0.03132757 0.03220898 -0.0034020005 -0.0029411947
0003c0 c1 e9 8e bd ec 6c 3e bd db 5b 8f bd 65 d0 08 bd
       -0.06978179 -0.046490595 -0.06999942 -0.033401866
0003d0 27 9f d9 3c 84 29 88 bd 66 ab 5c 3c d4 e2 5a 3c
       0.026565148 -0.066485435 0.013468599 0.013359744
0003e0 f8 56 c6 3c 58 62 f4 bb 7d 00 3b 3d aa 32 1c bd
       0.024211392 -0.0074580126 0.045654763 -0.038134255
0003f0 04 c1 01 bd 93 8f 00 3d 3c 7b ba bc 4b be f0 bd
       -0.031678215 0.031386923 -0.02276384 -0.117550455

fc2.bias f4 [40]
000000 d0 b7 4b 3c a6 fb dc bd a3 b8 d4 bd 67 db f9 3e
       0.012433961 -0.10790186 -0.10386779 0.48800203
000010 32 ca 92 3b 20 89 61 3f 18 e5 61 3f 71 17 c3 bb
       0.00447967 0.8809986 0.88240194 -0.005953722
000020 83 57 10 3f 0e 56 19 be 64 de 0f 3c ee fc c8 3b
       0.5638353 -0.14974234 0.008781049 0.006133667
000030 6e bf 29 40 9b 61 9b bc 2d 88 25 3f d4 08 b6 3d
       2.652309 -0.01896744 0.6466091 0.088884026
000040 75 cf 84 bd 10 26 34 3d 7b 0b ab bd d6 f2 b5 bd
       -0.06484882 0.04398161 -0.08351799 -0.08884208
000050 cd 63 f0 bd 40 0f f4 bd 55 06 ea bb f9 2a 1f 3e
       -0.117377855 -0.11916971 -0.007141868 0.15543737
000060 61 4e 9e bd 32 cd 6b bc 9c b0 c6 bd b1 4c 6b 3e
       -0.07729793 -0.014392184 -0.09701654 0.22978474
000070 44 f0 b1 3c 22 78 a9 3f 49 94 18 3e 2e 07 a0 3e
       0.021721013 1.3239787 0.14900316 0.31255478
000080 a8 0d 13 3f ab 24 47 bd 3d 90 9b bc ad 8c fe bd
       0.5744271 -0.048618954 -0.018989677 -0.124291755
000090 c3 54 a4 bc a9 a6 f3 bd ea 04 79 bd 9a 7b 63 bd
       -0.020059949 -0.11897022 -0.060795702 -0.055537798

fc3.weight f4 [16, 40]
000000 fc 7d 02 be b4 33 b4 3d 50 3a 08 be ef 4f 83 be
       -0.12743372 0.08798924 -0.13303494 -0.25646922
000010 4b 40 19 be ce 13 aa 3b a3 f8 a8 3b 51 65 8b bc
       -0.14965932 0.005190349 0.005156593 -0.017016085
000020 18 11 20 3d 1d 14 90 bd d9 4a e0 bd f2 67 c2 bd
       0.039078802 -0.07035086 -0.10951776 -0.09492482
000030 98 4a 6d be 4e 05 9f bd 71 ec e7 bb 30 89 fc bd
       -0.23172987 -0.07764684 -0.0070777466 -0.12330854
000040 fa 69 6b bc 5e 6b 82 bd a8 21 87 3d 4b 30 70 bc
       -0.0143685285 -0.06368135 0.06598216 -0.014659951
000050 27 ee 17 3e f3 85 75 be 21 0c 3a 3d c3 25 31 bd
       0.14836942 -0.23976879 0.045421723 -0.043248903
000060 d5 31 00 be a9 c0 9a bd 5b 91 97 bd e4 32 16 be
       -0.1251901 -0.07556278 -0.07400771 -0.1466785
000070 59 b3 89 be 0c 03 71 3c 74 68 6e bd 0a bd 1f be
       -0.26894644 0.014710199 -0.058205083 -0.15599456
000080 ab e1 1c be 38 50 e7 bc 35 15 10 3e 28 b8 81 bd
       -0.1532046 -0.028236493 0.1407059 -0.06333953
000090 5e f0 f7 3c e0 05 9b bd f6 57 b6 bc d9 1e ca 3c
       0.030265983 -0.0756948 -0.02225874 0.024672912
0000a0 08 1a df 3d d4 a1 06 be 51 e1 88 3d 72 16 81 bc
       0.10893637 -0.1314767 0.06683601 -0.015757773
0000b0 ec ae a1 bd 8e 2b 57 3d fd d7 8f bd 13 d1 a2 bd
       -0.07894692 0.05253177 -0.07023618 -0.07950034
0000c0 46 01 3d bd 3b 6a 7b 3d 6f f7 e7 bd bb 3a 98 bd
       -0.046143793 0.061380606 -0.11326491 -0.07433077
0000d0 dd 62 24 bd 1c 36 9d 3d eb 1d 21 bd 6a 3f 1d be
       -0.040133346 0.07676336 -0.039335173 -0.15356222
0000e0 0d 28 d9 3d 0e b4 f5 bd 06 4d be 3d c5 66 35 be
       0.10603342 -0.11997233 0.09292035 -0.17714985
0000f0 4f d2 c4 bb 57 63 ce bc b6 b9 47 3b 17 78 40 bd
       -0.006006516 -0.025193853 0.0030475683 -0.046989527
000100 88 44 c4 bd 8a 4e ee bd 2e d0 dd bd 20 f5 69 bd
       -0.09583384 -0.11636074 -0.10830723 -0.057118535
000110 4a db e6 bd 1f ff 26 be 45 dd fe bd 9e 3f 44 be
       -0.11272295 -0.16308258 -0.124445476 -0.19164893
000120 ac 6c 0b 3e 29 88 00 be 53 eb fd bd a3 d9 03 be
       0.13615674 -0.12551941 -0.123984 -0.1287599
000130 23 4e 18 3e 7f 44 28 be 42 1c 0c 3e 7a f5 7a 3d
       0.14873557 -0.16432379 0.13682655 0.06126926
000140 e6 54 c1 bd 62 10 11 bc 0a b3 8d bd f9 c1 31 c1
       -0.09440021 -0.008854004 -0.069189146 -11.109857
000150 f1 88 57 bd fb 36 31 3f f3 7b e0 3f ac 9b dc 3c
       -0.052620832 0.6922452 1.7537826 0.026929699
000160 f5 0d e1 3d bf e9 8f bd cb da 7f 3b c6 16 36 bb
       0.1098899 -0.070270054 0.0039040323 -0.002778457
000170 e0 9b 03 bf de cb dd bc 97 46 0d 3f fb c3 af 3e
       -0.5140972 -0.02707475 0.55185837 0.3432921
000180 ac ba 99 bd 22 7c d1 3d 97 ca 14 be 14 41 48 be
       -0.07506308 0.102287546 -0.14530407 -0.19556075
000190 2d 77 e9 bd 53 fb 0d c0 79 77 6d be 20 91 c2 3e
       -0.11399684 -2.2184646 -0.23190106 0.38001347
0001a0 ea 75 8e 3d 84 1c 02 be 4e 7e 62 bd b2 cd 56 3e
       0.06956084 -0.1270619 -0.055296235 0.20976904
0001b0 14 17 94 bf 75 31 93 c0 9b 7c 0c 3e 24 bf f5 3f
       -1.1569543 -4.599787 0.13719408 1.9198956
0001c0 b5 66 d4 3f 71 d6 01 3e ff 1c 13 3e ee 42 f2 ba
       1.6593844 0.12679459 0.1436653 -0.0018483081
0001d0 11 60 9b 3c 75 e1 4d bd bf 98 fb bd 2f 9b 88 bc
       0.018966706 -0.05026384 -0.122849934 -0.01667556
0001e0 61 c8 da 3d 2b 18 04 3e fe 29 6a bd 3b 16 0b 3f
       0.106827505 0.12899844 -0.057168953 0.54330796
0001f0 00 dc 55 bd 02 9e 62 bf 3e c6 c5 be c5 05 88 3d
       -0.05221176 -0.8852235 -0.3862781 0.066417255
000200 ba dc 8a 40 98 b8 af 3d 87 5c 76 3c c8 f8 fd bd
       4.339444 0.0858013 0.015036709 -0.12400967
000210 a1 16 ca 3e 25 de ce bd de a3 d9 bf 8b 8d 63 bf
       0.3947039 -0.101009645 -1.7003133 -0.8888785
000220 a9 0b 14 3e ee a0 14 bd 3b 3c 62 3d cd 82 22 c0
       0.14457573 -0.036286287 0.05523322 -2.5392334
000230 c6 71 df 3d 9e 8b 9a 3e d0 f8 f1 3d 99 a4 9e bf
       0.109103724 0.30184644 0.11815035 -1.2393981
000240 7d ec 7f bd 33 96 99 bd 37 88 5e 3d e3 05 70 bf
       -0.062481392 -0.07499351 0.054329123 -0.9375898
000250 f3 68 32 bf 37 07 15 3f e5 11 85 3d 88 5f 92 bf
       -0.6969139 0.58214134 0.06497554 -1.1435404
000260 f2 a8 72 bf 64 b8 70 3d 75 81 01 be ee 4c fd 3d
       -0.9478904 0.0587696 -0.1264704 0.12368189
000270 43 c9 fc 3d 0a d5 bc bd 8d f3 8a 3d bb 03 1c bc
       0.12343075 -0.092203215 0.06784735 -0.009522374
000280 2d 19 a0 3d 90 2f a0 bd c5 c2 12 be a1 9f ce be
       0.07817302 -0.07821572 -0.14332111 -0.40356162
000290 94 18 8c bd c8 be e9 3f 95 97 4a 3f b9 81 e5 3d
       -0.068406254 1.8261347 0.79137546 0.11206383
0002a0 63 94 44 c0 7b 16 f1 3d e5 3b 5e bd f2 4d 9f 3d
       -3.0715568 0.11771866 -0.05425634 0.07778539
0002b0 72 6d 19 3c a5 6c dd 3d 07 90 d7 bf fc 5f 40 c0
       0.009364473 0.10811738 -1.6840829 -3.0058584
0002c0 40 01 ba 3d ac d3 ab 3d 9c 60 0e 3e 28 04 da bf
       0.0908227 0.083899826 0.13904041 -1.7032518
0002d0 b1 25 c8 3c c1 d1 bf 3d 40 18 f4 bd 36 08 b7 3f
       0.024432035 0.09366179 -0.11918688 1.4299381
0002e0 e1 0f 12 3e de 36 4e bd 94 6d 2e 3d a5 cf b3 c0
       0.1426387 -0.050345294 0.04258497 -5.619097
0002f0 ae 7e 82 3e 8a e5 9b bc 98 ed 8d bf 8e 74 9f bf
       0.25487274 -0.019030351 -1.1088133 -1.2457445
000300 e2 7a 33 40 4a ca f0 3d 09 75 4d 3d c9 3d 72 3d
       2.8043752 0.117573336 0.05016044 0.059140954
000310 17 d6 67 bd ef 12 ab 3c 3c 6c f9 3b 93 ee 12 bd
       -0.056600656 0.020883052 0.0076117795 -0.035872053
000320 bf c6 c7 3d f0 30 49 ba c1 52 18 be 72 f6 17 be
       0.09754705 -0.0007674834 -0.14875318 -0.14840105
000330 c3 4c b4 3b 3b c9 b5 bd c0 20 09 be c4 64 0a be
       0.005502315 -0.08876272 -0.133914 -0.13515002
000340 1b 99 57 be 24 8b 94 3d 2a 45 3c bd a5 a6 a3 bb
       -0.21054499 0.072531015 -0.045964397 -0.004994231
000350 4d 85 4b bd e0 db cf 3c 31 32 b5 bd 0f 54 9f bd
       -0.049687672 0.0253734 -0.08847464 -0.07779705
000360 85 b5 3f 3c 50 64 e3 3c c6 1d 1a 3e d8 69 22 b9
       0.0117009925 0.027757794 0.1505042 -0.00015488954
000370 2d e7 17 3e 61 25 da 3b d7 a0 cc bc 34 a4 77 be
       0.1483428 0.006657288 -0.024979038 -0.24183732
000380 b8 ec 91 bd 59 ff b6 3c 31 d3 97 3d 9b f8 e1 bc
       -0.07125229 0.022338556 0.074133284 -0.027584365
000390 ad 61 d9 bd de be 1d be b9 09 08 be ad 4d 8d 3d
       -0.10614333 -0.15404841 -0.13284959 0.06899581
0003a0 d3 0d 34 be ad e6 4c 3d 4b 52 80 bd 21 36 1a 3e
       -0.17583399 0.050024677 -0.06265696 0.15059711
0003b0 ce 48 a7 bd 25 47 df bd 71 c2 0a 3e 0f 5d d3 3b
       -0.08168183 -0.109022416 0.13550736 0.0064503024
0003c0 af 60 49 bb 27 3c 82 bd ed fa 81 bd 8a 9d 3c 3e
       -0.0030727794 -0.063591294 -0.063466884 0.18419471
0003d0 47 e4 c2 3d 80 0b bb 3c c5 8a 95 be 91 53 84 3c
       0.09516197 0.022832632 -0.29207435 0.016153129
0003e0 1c 55 4a 3d 1a 7a 50 bd 83 de e8 3b d4 84 a2 bd
       0.049397573 -0.050897695 0.0071066036 -0.07935491
0003f0 3c 8a 82 3e f9 1b a8 bd 5d 7e c6 be ab 06 76 3d
       0.2549609 -0.0820846 -0.38768283 0.060064953

fc3.bias f4 [16]
000000 3f 48 6d be 38 76 2e bd 49 26 19 3f 33 64 6e bf
       -0.23172091 -0.04259321 0.59824044 -0.9312164
000010 5a 4d 0c bf 6a f3 4a be 36 f1 ac 40 5c 21 d8 3b
       -0.5480553 -0.19819418 5.4044447 0.0065957736
000020 c4 71 26 bd 46 11 57 bf 95 65 5b 3f 06 4f dc 3f
       -0.04063584 -0.8401073 0.85701877 1.7211616
000030 c7 03 87 bd 70 22 2a 3f d9 44 b7 be bd bb 70 be
       -0.06592517 0.664588 -0.35794714 -0.23509116

fc4.weight f4 [1, 16]
000000 7c c0 4a bc cb f9 6f 3c 24 25 38 be 36 be 22 3f
       -0.012374993 0.014646958 -0.17982918 0.6357149
000010 b1 46 58 3e 79 99 8f bc 2e c0 7b bf 0f 7f 24 3e
       0.21120717 -0.017529236 -0.9834012 0.16064094
000020 3e 3a e3 3c 43 3d 8b 3e f7 1b 6c 3f 16 99 08 3f
       0.027737733 0.27195176 0.9223017 0.5335859
000030 c0 73 65 b7 3a f3 81 be cf c2 4e 3e 72 9d 88 3c
       -1.3676414e-05 -0.2538088 0.20191501 0.016676638
