4x4_new_model_weights.pth (torch, 749544 bytes, 8 tensors)

fc1.weight f4 [480, 13]
000000 c7 60 76 bc fd 47 78 3e 35 67 b1 3c 7e 8a 25 bf
       -0.015037722 0.24246211 0.021655658 -0.6466445
000010 6b 01 ea 3e fa f7 ec be 40 30 3d 3e cb 59 5b be
       0.45704207 -0.4628294 0.18475437 -0.21420972
000020 96 12 d4 be ad 52 b8 be 2d 69 c6 3d 5a 26 d7 be
       -0.4142043 -0.36000577 0.096880294 -0.42021447
000030 e5 de 1b 3e 3c 8c d0 3d 25 a9 50 bd 78 69 de 3d
       0.15221746 0.101829976 -0.05094256 0.1085996
000040 6d 20 9f 3e c2 05 5b be ff 88 85 be 5d b9 a8 be
       0.31079426 -0.21388915 -0.26081082 -0.3295392
000050 00 eb fd bb 29 84 48 bd 69 a0 86 be 39 ab 21 bd
       -0.0077489614 -0.048954163 -0.26294258 -0.03946993
000060 bc 9d 76 be 86 9f 19 3e db 57 84 3e 62 e2 f5 3d
       -0.24083608 0.1500226 0.25848278 0.1200607
000070 1b f8 da be e1 0c 9f be bb 03 bb be d5 39 3b bd
       -0.42767414 -0.31064513 -0.36526284 -0.04570945
000080 b4 0d ab 3e a7 9a dd bd a8 01 18 3e b1 cd 3f be
       0.33408892 -0.10820513 0.14844382 -0.18730809
000090 b7 09 7c 3d 8f d9 33 be 2d 09 1f 3e 8e cd 73 be
       0.061532702 -0.17563461 0.15530844 -0.23808882
0000a0 15 8a 8e be b5 94 9c 3e d2 91 e5 be ef 3b 05 3e
       -0.27839723 0.30582204 -0.44837815 0.13011144
0000b0 18 27 c1 3e f0 4b f6 3e da 92 c1 3e 03 32 4c bf
       0.3772514 0.4810481 0.3780735 -0.7976381
0000c0 b7 5e 8b 3e 5e 4f af bd 61 70 11 3e ef ed 37 bf
       0.272207 -0.0856006 0.14203025 -0.7184743
0000d0 c4 91 4d be 62 1c 10 b9 c7 e4 e3 bd e0 e2 29 bd
       -0.20075136 -0.00013743484 -0.1112762 -0.04147613
0000e0 c3 f2 36 be 44 2f 22 be 58 28 fa 3e 8e 27 0f bf
       -0.17866044 -0.15838343 0.48858905 -0.5591973
0000f0 10 eb 16 3e 02 9b 96 be b4 17 28 be 38 18 83 3e
       0.14738107 -0.29415137 -0.16415292 0.25604415
000100 4e 1c ad be df bc 91 be ac 25 ac 3d 54 47 96 bd
       -0.33810657 -0.2846441 0.08405623 -0.073378235
000110 34 33 17 3b 17 fd 0b 3e 33 47 8c be 57 30 e3 be
       0.002307129 0.13670765 -0.2739807 -0.44372818
000120 f3 e5 8e 3e 9e b8 09 be f4 45 42 3e 38 7c 91 bd
       0.27909812 -0.13449332 0.18971997 -0.07103771
000130 58 cf 23 3d 11 46 b1 bd 3a 54 df 3e 32 cd 88 3d
       0.03999266 -0.08655942 0.43618947 0.06679763
000140 53 b8 19 3f 2f 63 26 3e 51 9b a5 be 26 c1 a5 bc
       0.6004688 0.16248773 -0.3234506 -0.020233702
000150 33 e1 0d 3d 3e 8d a6 3e 2d b0 89 be e5 4d ff bb
       0.034638595 0.32529634 -0.26892224 -0.007791268
000160 7d 1b 29 be ac 64 95 bd c9 67 bd 3d cb e7 86 bd
       -0.16514392 -0.07294592 0.09248311 -0.0658718
000170 5d 5c 8a bd 38 5d 5f be a5 b3 22 3e bc 9f f2 3e
       -0.06755898 -0.21812904 0.15888841 0.47387493
000180 b1 6f 4c 3e 54 98 c8 3e 57 ea f5 3d b7 13 9b be
       0.19964482 0.39178717 0.120075874 -0.3028848
000190 db 31 d7 be 9a c5 3d be d9 7e 99 be cc b4 96 3d
       -0.42030224 -0.1853241 -0.2997959 0.07358703
0001a0 45 52 bb 3e 92 a6 8b bd f7 29 00 be 8d 47 9c 3e
       0.36586204 -0.0681888 -0.12516008 0.3052334
0001b0 77 93 8c be d3 22 8f be 0d 03 01 3e c6 8f 97 3e
       -0.27456257 -0.27956256 0.1259882 0.29601878
0001c0 92 cc 89 be be 58 99 be 96 b1 0d 3d 26 8a 49 be
       -0.26913887 -0.29950517 0.034593187 -0.19681606
0001d0 e7 ad da 3e 57 0b 87 bd 1c e2 64 be a6 0e 35 3d
       0.42710802 -0.0659396 -0.22351879 0.044203423
0001e0 a0 b9 4b bd b6 33 a4 3e b0 92 37 be ae d9 da 3d
       -0.049737573 0.32070702 -0.1792705 0.1068605
0001f0 36 50 00 bd bc 16 aa bd 60 16 ee 3d f7 5d 8d be
       -0.031326495 -0.083051175 0.116253614 -0.27610752
000200 c6 35 bc be 99 f7 31 bd d1 3d 7e bc 1b e2 69 3e
       -0.36759776 -0.04344902 -0.015517668 0.22840159
000210 67 ab 75 3d 60 6b cf 3e 3e 5b 46 be 41 94 80 bd
       0.059977915 0.40511608 -0.19370744 -0.06278277
000220 8a de c0 3d f1 6b 25 3f b5 f0 76 3e 46 2b 45 3e
       0.09417446 0.6461783 0.2411526 0.19254789
000230 f3 c5 e2 3d 8e 12 8e be a6 35 05 be 27 8f 2b 3f
       0.11072912 -0.2774853 -0.13008747 0.6701531
000240 da de 3e be 4f e4 e5 be 34 ed 5d 3e 13 1f d0 be
       -0.18639699 -0.44900748 0.21672517 -0.40648708
000250 b4 29 aa 3d 8f dd ee bd d7 da 81 3e 82 50 4e be
       0.083087355 -0.11663353 0.25362274 -0.20147899
000260 37 4e 12 3e fd 5b e5 be 08 1d 80 3e 46 f3 e5 be
       0.14287649 -0.44796744 0.2502215 -0.44912165
000270 ea ba 61 3e f9 ff 5c 3b df ed aa bd 91 03 c8 3e
       0.22043958 0.0033721908 -0.083461516 0.3906522
000280 21 be 1d 3e b5 75 10 3d 99 d4 38 3f 1e 06 7a bc
       0.1540456 0.035268504 0.721994 -0.0152602475
000290 09 d9 b0 3d 8f a9 39 3d 9a a8 c4 3d 23 3e 69 be
       0.08635146 0.04532772 0.09602471 -0.2277761
0002a0 17 6e 92 be d9 6a 39 3c 05 31 04 bc eb 9d ca bc
       -0.28599617 0.011316978 -0.008068328 -0.024733504
0002b0 b2 c9 58 3a 13 98 29 3d 55 38 ec bb a3 5b b6 bb
       0.0008269801 0.041404795 -0.0072088637 -0.005565123
0002c0 5a 65 c3 bb fb 19 8b 3c a7 7e 85 3b 65 13 92 3c
       -0.00596301 0.016980162 0.004073936 0.017831514
0002d0 41 99 e4 3b 68 d0 81 bc 96 a0 e9 bd b5 d3 bf bd
       0.006976277 -0.015846446 -0.114075825 -0.09366552
0002e0 99 fe 43 3d 00 98 ee be 0d 2f e2 be 4a a6 aa bc
       0.047850225 -0.46600342 -0.44176522 -0.020831246
0002f0 93 c6 27 be 7a d3 b3 3e 1c 11 2a 3e 08 6d c4 3d
       -0.16384344 0.3512228 0.16608089 0.095911086
000300 04 2a ce be 36 92 79 be a5 a7 ce bd 6e ec ca be
       -0.4026643 -0.24372181 -0.100905694 -0.39633507
000310 b6 2f 28 be 7a 3f b1 bd 0f 55 ad 3e f8 77 23 3f
       -0.1642445 -0.08654685 0.33853957 0.6385493
000320 5d f7 c5 be 04 9d 56 bf 3a 17 21 3e 5d cb 13 be
       -0.38665286 -0.83833337 0.15731516 -0.14433046
000330 26 6d 4c 3f d8 2e a3 bd 29 a7 1b 3f 6e 78 16 3d
       0.7985405 -0.07967919 0.6080194 0.036735944
000340 c9 9a 90 3c 5c 8d 86 bd 0e b2 9b bc ee 24 78 3c
       0.017651932 -0.06569931 -0.019005802 0.0151455235
000350 ba ec 20 3d 78 4f 3d 3d b4 f1 0d 3d ab f8 cf 3b
       0.03928826 0.046218365 0.034654334 0.006346782
000360 70 55 67 bc 82 7b 68 3d 76 56 6c b9 df de 03 3d
       -0.014119491 0.05675841 -0.00022538923 0.03219497
000370 03 a6 29 bd 8d 03 cb 3d ec 89 2b 3c 6d 4a 96 3d
       -0.041418087 0.09912787 0.010469895 0.07338414
000380 a0 79 0c bf 0e bd 30 bf 3a cd 0f 3e 66 bb 11 3f
       -0.54873085 -0.69038475 0.14043131 0.5692657
000390 fe e1 2f 3d 66 1c 02 3e b5 ee 90 bc d5 ff 9e bc
       0.042940132 0.12706146 -0.01769195 -0.0194091
0003a0 23 36 e2 3d f6 63 be 3d cd 2c a5 bd b7 d6 bd 3d
       0.11045482 0.0929641 -0.08065186 0.09269469
0003b0 b0 a5 49 3c 2e 60 38 3e 7d 92 09 be 0a 81 28 be
       0.012307569 0.1800544 -0.13434787 -0.16455474
0003c0 9e bd d5 3d 8c 3b 86 3c e8 88 e5 bd 94 b6 e7 3b
       0.10436557 0.016385816 -0.112077534 0.0070713256
0003d0 cf 90 11 3e 25 2e 22 3e 9e e6 70 3d 1a 43 88 3d
       0.14215396 0.15837915 0.058813684 0.066534236
0003e0 e4 40 a4 be c9 46 ab be af cc 8c be 1a 71 e6 3e
       -0.32080758 -0.33452442 -0.2749991 0.45008165
0003f0 48 a5 e8 3e 55 92 95 3e db 4c 0b bf 10 85 c3 3d
       0.454386 0.29213205 -0.5441415 0.09546864

fc1.bias f4 [480]
000000 38 49 46 bf ea ed a4 be 5e 82 59 bc f3 a4 a9 bf
       -0.7745547 -0.32212764 -0.013275711 -1.3253464
000010 8b a3 36 bf 25 2e 4b be e1 f3 1f bf 43 fa 81 be
       -0.71343297 -0.19841821 -0.62481505 -0.25386247
000020 f8 ae 04 bf 5b 65 bb bd 00 92 ab be 47 f4 43 bf
       -0.5182948 -0.091501914 -0.33509827 -0.7654461
000030 21 65 22 bd ba 8a cd be dc b6 b8 be 9c 5c a1 bf
       -0.039647225 -0.40144902 -0.3607701 -1.2606387
000040 f8 0e 66 bf 72 af 91 bd de 4c 46 bd 85 2e 53 bf
       -0.8986659 -0.07113542 -0.04841315 -0.8249286
000050 68 cb 0f bf 29 cd 89 be b0 66 09 bf 12 15 e0 3b
       -0.5616975 -0.26914337 -0.53672314 0.0068384493
000060 96 ff 2a 3d 11 e9 b1 bf 40 0a 3a 3d 13 65 53 be
       0.041747652 -1.3899251 0.04541993 -0.20644026
000070 28 ea ab bf 95 bd 2e bf 09 62 09 be 17 20 d4 be
       -1.3430834 -0.6825803 -0.13416304 -0.41430733
000080 96 2b c1 be cd be c6 be 7a ba 26 be 97 66 4f bf
       -0.37728566 -0.38817444 -0.16282073 -0.81015915
000090 93 cd ba bf 4b 89 9f be 27 85 83 be 22 fa 4d bf
       -1.4593986 -0.31159434 -0.25687525 -0.804598
0000a0 2e 69 b8 bf 7e 37 8e bf fe a9 3e bf 7e b3 81 bf
       -1.4407098 -1.1110685 -0.7447814 -1.0132902
0000b0 b5 88 80 bf a4 76 b5 bd 4c fb 96 bf ef 24 d1 be
       -1.004172 -0.088605195 -1.179544 -0.4084849
0000c0 1f 44 db be b2 b5 7b be 0e 1e a6 bf f8 7e 95 be
       -0.4282541 -0.2458103 -1.2977922 -0.29198432
0000d0 66 af 8d be 0e 31 2c bf d4 a8 b8 bf 87 d5 d3 be
       -0.2767288 -0.6726235 -1.4426522 -0.41373846
0000e0 5f 01 5b bf 55 4a e5 be 68 74 5d bf 60 0e b1 3d
       -0.8554897 -0.44783273 -0.86505747 0.0864532
0000f0 e7 7f 37 be e5 9f b8 be 3b 53 4a bf f8 bf b8 be
       -0.17919885 -0.3605949 -0.7903325 -0.3608396
000100 ad 47 f2 be 66 5d 85 bf 8d f2 8d bf a3 80 8c bf
       -0.4732031 -1.0419128 -1.1089646 -1.0976757
000110 10 32 08 3d 59 19 04 bf 40 59 a0 bf e1 ad 96 bf
       0.03325087 -0.5160118 -1.2527237 -1.1771814
000120 26 44 68 bf 14 b8 51 bf fa dd bb be 2e 2f 87 bf
       -0.90728986 -0.81921506 -0.36692792 -1.0561273
000130 02 a8 71 bf 09 11 13 bf d0 4c 46 be 88 7a af be
       -0.94396985 -0.5744787 -0.19365239 -0.3427317
000140 c0 4e f7 be d6 b0 09 be 72 5b 13 bf 16 bb 7e bf
       -0.4830227 -0.13446364 -0.5756141 -0.9950422
000150 5f 12 e9 be cd 16 81 bf a3 cd ae be ad a5 d1 be
       -0.4552183 -1.0085083 -0.34141263 -0.40946713
000160 53 16 db bd 5c 32 34 be 2c c7 90 be 92 9a 85 bf
       -0.106976174 -0.17597336 -0.28276956 -1.0437796
000170 d0 d9 b9 bf 52 9b b8 bf 6e 10 38 bf fb f6 10 bf
       -1.4519596 -1.44224 -0.7190007 -0.5662686
000180 fe 2d 31 bf 4c 4c ae be e6 39 ab bf 9c 54 b6 bf
       -0.69210804 -0.34042585 -1.3377044 -1.4244571
000190 07 19 18 bf 53 e3 9f bf 6f 3e 98 be 5b bb 6a bf
       -0.5941319 -1.2491249 -0.29735133 -0.9169213
0001a0 8f a0 3c be 8a 28 31 bf 00 e0 32 bf 87 ce 4a be
       -0.18420623 -0.6920248 -0.69873047 -0.19805346
0001b0 7f c4 9a bf 63 94 18 bf ea 15 92 be 40 5d ff be
       -1.2091216 -0.5960142 -0.28532344 -0.49875832
0001c0 8d f2 77 bf a6 8f 87 bf 41 89 f0 be 75 86 73 bf
       -0.9685448 -1.0590713 -0.46979716 -0.9512704
0001d0 c4 60 61 bf 47 bf 41 bf c0 cb 51 be 46 d9 49 bf
       -0.8803828 -0.7568249 -0.2048788 -0.7884716
0001e0 c3 58 79 be 81 f8 57 bf 88 94 4d 3c c2 d7 91 bf
       -0.24350266 -0.8436356 0.01254762 -1.1393969
0001f0 6e 12 7a bf 8f 63 1d bf de 09 e8 be ee e3 40 bf
       -0.9768437 -0.6148004 -0.45320028 -0.75347793
000200 e5 44 7f be 13 a8 69 be 0d a1 2e be 1d 1f 8a bf
       -0.24928625 -0.22818021 -0.17053623 -1.0790745
000210 9f 8e 77 bf 41 13 94 be f9 75 72 be 09 8c 9f bf
       -0.96702 -0.2892094 -0.23677815 -1.246461
000220 84 2f 93 be 51 1d f4 bd 7c 5f 5b bf 70 8e d7 be
       -0.2874719 -0.11919654 -0.8569257 -0.4210086
000230 d8 c1 93 be ca bb 82 bf ba 38 17 bf 60 bc 26 be
       -0.2885883 -1.0213559 -0.5907093 -0.16282797
000240 c3 b4 2b bf 2c 9e 4b bf 9f e9 09 bf 44 ff 53 be
       -0.67072695 -0.79538226 -0.538721 -0.20702845
000250 b2 be 39 bf 9d 32 6f bf ae f1 93 bf 31 b4 78 bf
       -0.725566 -0.93436605 -1.155813 -0.9714995
000260 05 13 8d be d4 34 6b bf 26 ff 4a bf e0 0a 8e bf
       -0.27553573 -0.91877484 -0.79295576 -1.1097069
000270 27 78 88 be 27 e0 2e bf 35 6a 4c be 5c 8d 21 bf
       -0.2665417 -0.6831078 -0.1996239 -0.6310632
000280 7f a3 9f bd 7a 27 0a bf e8 18 e2 bd 3f 32 b2 bd
       -0.07794856 -0.53966486 -0.11039907 -0.0870099
000290 a0 8c 8d bf 8d 58 91 bc cb d8 90 be 26 c9 06 c0
       -1.105854 -0.01774242 -0.282904 -2.1060271
0002a0 41 06 64 bf 6f 1c 3c be f7 ff 12 3e d0 a5 da bf
       -0.8907204 -0.18370222 0.14355455 -1.7081852
0002b0 6d 55 5d bf de ca 3b be d1 ea fb be 35 b4 86 be
       -0.86458474 -0.18339106 -0.49202588 -0.26309362
0002c0 f5 94 60 bf c5 12 cb be f4 6e c4 be d7 b6 d8 be
       -0.8772729 -0.39662758 -0.383659 -0.42326996
0002d0 62 41 6b bf be a5 70 bf fb 73 a7 bf 02 be ad be
       -0.9189664 -0.940029 -1.308227 -0.33934027
0002e0 17 ee d1 be 5e e1 61 bd b2 e3 86 bf 8f 92 52 bf
       -0.4100196 -0.055146568 -1.0538237 -0.8225488
0002f0 fe 6f 06 bd 53 72 94 be 62 b1 a9 bf d3 67 7a bf
       -0.032821648 -0.28993472 -1.3257258 -0.97814673
000300 af 5d 2a bf 0d 81 57 bf 2b eb c6 be fb b1 c6 be
       -0.665492 -0.8418129 -0.38851294 -0.38807663
000310 1c 43 92 bf db 7c 33 bf 0b ab 68 be 5c ca ca be
       -1.142673 -0.7011239 -0.22721498 -0.39607513
000320 62 ad 94 bf 71 b7 54 bf ef 4d 20 bf 33 d8 07 bf
       -1.1615412 -0.8309241 -0.6261892 -0.5306427
000330 6d 3b ac bf ac 8e 37 3d 66 d6 2e bf b1 53 b8 bf
       -1.3455635 0.044813797 -0.68295896 -1.440054
000340 33 e2 a4 bf 0c 82 f5 bd 64 2d d1 bf 03 9d 9a bf
       -1.288153 -0.11987695 -1.6341977 -1.2079166
000350 c7 77 b3 be 85 cf 83 bf 0c 59 4a bf d1 07 51 be
       -0.3505232 -1.0297705 -0.79042125 -0.20413138
000360 cc 4f 8f bf cb 9f 61 bc b2 40 92 be 9b aa 88 bf
       -1.1196227 -0.013771008 -0.28564984 -1.0677065
000370 dd 2f 83 bf 3f dd 4d bf 30 39 f5 be 0a 10 05 be
       -1.0248982 -0.8041572 -0.47895193 -0.129944
000380 a1 86 bb be 8b c7 11 bf 94 c2 82 be 32 76 b1 be
       -0.3662615 -0.56945103 -0.25539076 -0.34660488
000390 34 77 0e bf f7 ca 2f bf 90 ed 15 3d 8a 08 9e bf
       -0.5565064 -0.68669075 0.03660351 -1.2346356
0003a0 40 43 c4 bd 98 c7 d9 bf 2b 9b c9 be c0 18 18 bf
       -0.095831394 -1.7014036 -0.39376196 -0.59412766
0003b0 d8 f0 37 bf a3 9c 05 c0 1b 6e 80 be b3 cc 62 be
       -0.71851873 -2.0876853 -0.25084004 -0.22148399
0003c0 99 ec 1b bf b1 b2 c3 bd a6 2e 50 bf dc 9b 3b be
       -0.60907894 -0.09555567 -0.8132118 -0.18321174
0003d0 ee 8f 40 bf 4d 9b fd be aa c5 9d bf ad 38 92 be
       -0.7521962 -0.49532548 -1.2325947 -0.28558865
0003e0 8d fe 22 bf 1f 1b 52 bf 07 d2 f2 bf 48 c9 6a bf
       -0.63669664 -0.82072634 -1.8970345 -0.9171338
0003f0 b6 ae 0f bd 58 93 3e bf ee 88 f3 be 53 33 4a bf
       -0.035078727 -0.7444358 -0.47565407 -0.78984565

fc2.weight f4 [320, 480]
000000 6e 9e 8c bf 7f 89 86 3c 6a e4 18 3f 82 04 4d 3f
       -1.0985849 0.016422985 0.5972353 0.80085003
000010 37 08 0b bf 42 b2 0a be b0 2f 6d bf 9a 5e 69 3e
       -0.5430941 -0.13544562 -0.9265089 0.22789994
000020 03 ba bd 3e d4 c2 55 3f c3 b3 87 3f 12 f8 98 bf
       0.37055978 0.8350041 1.0601734 -1.1950705
000030 c9 06 4d bf bf b4 b6 3e ca e4 1c 3f c5 fb 6d bf
       -0.8008848 0.35684773 0.61286604 -0.92962295
000040 00 e9 da 3e b0 5b 45 3f f4 26 41 3f 75 ef 88 bf
       0.4275589 0.7709303 0.7545006 -1.0698076
000050 68 72 b2 3f 59 4c b5 be 5e cb 37 3f d0 eb a0 3e
       1.3941164 -0.3540981 0.7179469 0.3142991
000060 0b 26 65 3e e8 2b 4b bf b6 3b 15 c0 06 b8 7c 3f
       0.22377793 -0.7936387 -2.3317695 0.987183
000070 17 8d 6b bf de 45 fa be d5 77 63 be 4a 71 a7 3d
       -0.9201216 -0.4888143 -0.22213681 0.08175905
000080 46 da 08 3f 19 7e 6d 3e 00 13 80 3e 4d 8b 6b bd
       0.5345806 0.23192634 0.25014496 -0.057505894
000090 08 01 b1 3e 7d fe 0f 3e c1 bf 2d bf b6 7c cd 3f
       0.345711 0.14061923 -0.6787072 1.6053684
0000a0 03 90 d2 be 32 f8 be 3f b0 e5 12 3f 77 3d b9 bf
       -0.41125497 1.4919493 0.57381725 -1.4471883
0000b0 08 db 41 3f 5a bc ba 3f 8d a4 22 3d a2 ad c1 3d
       0.7572484 1.458873 0.03970771 0.09456946
0000c0 02 e3 be 3e a0 b2 68 3f dc c4 34 3f e4 30 0a bf
       0.37282568 0.9089756 0.70612884 -0.5398085
0000d0 4f 78 c3 3f d4 bd 32 bf 44 de df 3e 9f b0 9a 3f
       1.527109 -0.69820905 0.43724263 1.208515
0000e0 01 69 cc bd 49 84 43 3f 44 fb a9 bd cf 57 8a 3f
       -0.099809654 0.76373726 -0.08299878 1.0808047
0000f0 b8 35 80 c0 ce 47 3e be 60 ec 48 bf 99 b1 29 bf
       -4.0065575 -0.18582079 -0.7848568 -0.6628662
000100 45 e0 df bf 49 1c 9c be 14 73 40 be fb 67 db 3e
       -1.7490317 -0.3049033 -0.18793899 0.42852768
000110 df 07 1f 3f 60 b1 d8 be de 06 9e 3c 53 42 88 3e
       0.62121385 -0.42322826 0.019290384 0.266131
000120 f4 96 e7 be 8c 41 26 be dc 22 ce 3c f3 0d 7c 3d
       -0.45232356 -0.16235942 0.025163107 0.06153674
000130 cd bd 95 bf e0 a4 89 bf 3a af 54 bf 43 78 09 bf
       -1.1698548 -1.0753441 -0.83079875 -0.5369913
000140 38 1d b8 3d e0 1f f2 bf ea 98 ce bd 56 7d 7a bf
       0.08989948 -1.8915977 -0.1008776 -0.978475
000150 84 a8 1e be bb b6 35 bf 18 09 0a bf ad 44 ea be
       -0.15493971 -0.7098195 -0.53920126 -0.4575552
000160 77 fa 2d 3e 36 1f 35 3d 07 d0 f5 3d a2 85 78 bf
       0.16990076 0.04421922 0.12002569 -0.9707891
000170 f9 57 b2 3f 48 0c e3 3e 5d 06 8f 3e 70 65 13 3f
       1.3933097 0.44345307 0.27934542 0.57576656
000180 f4 8f b2 3f 32 0c c7 be 42 cd 4a bf b9 a7 fc bf
       1.3950181 -0.38876492 -0.7921945 -1.9738685
000190 94 c8 c0 be 88 f3 48 bf 51 ae 12 3f 83 db 9a 3e
       -0.3765303 -0.784966 0.57297236 0.302456
0001a0 25 cb c8 bd 2a a0 33 bf c2 c3 32 3f a8 6e 15 3f
       -0.09804372 -0.70166266 0.6982995 0.58371973
0001b0 b7 66 52 bf e2 dc 29 40 70 75 b4 3e cc 81 75 3b
       -0.8218798 2.6541066 0.35245848 0.0037461398
0001c0 63 2e f9 3e ae c9 d6 be 33 f2 c0 3f a3 c6 b6 3e
       0.48668203 -0.41950744 1.5073913 0.35698423
0001d0 89 6f e2 bf 35 93 34 bf f7 0a 13 bd 19 57 f1 3d
       -1.7690288 -0.7053712 -0.03589913 0.11784191
0001e0 1c 50 16 be dc af 8e 3f aa ca 1c bf 65 8f 35 bf
       -0.14678997 1.1147418 -0.6124674 -0.7092193
0001f0 fa b7 8b 3e 3b 61 77 3f 6f 50 74 3e 30 b6 54 be
       0.272888 0.96632737 0.23858808 -0.20772624
000200 2f 78 97 3f c6 19 85 3f 0c 9c 5a be 5f 10 9a bf
       1.1833552 1.039849 -0.2134859 -1.2036246
000210 68 c8 ee 3f f7 26 f6 3d 56 80 6e 3e 51 fd 29 be
       1.8654909 0.12019151 0.23291144 -0.16600539
000220 5a d8 ad 3d 6f 17 86 3e af 2c a4 bf a2 3b ef 3d
       0.084885314 0.26189753 -1.2826136 0.11681296
000230 09 c7 12 3f 09 b1 94 3f 92 91 2b 3f d7 f2 dd 3e
       0.57334954 1.1616527 0.67019 0.43349335
000240 d0 8f 61 bf a6 2a b4 bf d4 89 3b bf a4 cf 91 be
       -0.88110065 -1.4075515 -0.73257184 -0.2847873
000250 c7 7f a9 3e 22 b1 2f 3f b2 09 8b bf ca 3c a7 be
       0.331053 0.6862966 -1.0862334 -0.32663566
000260 f2 0b c7 be b5 d3 11 3f 53 48 cb bf db b6 0a c0
       -0.388763 0.56963664 -1.5881447 -2.1674106
000270 02 bc 71 3e f3 17 1e 3e 78 74 4c bf 2d 3e ba bf
       0.23606876 0.15438823 -0.7986522 -1.4550225
000280 59 58 10 3f 26 9b 09 3e 10 4c cf bf 76 eb 0e 3a
       0.5638481 0.1343809 -1.6195087 0.00054519565
000290 50 62 2a 3f 3d a8 b6 be 27 31 8a bd 65 24 de bf
       0.6655626 -0.3567523 -0.06747656 -1.7354857
0002a0 e7 14 00 bf 01 11 b1 3c 45 8a 29 3f 41 3c ad bd
       -0.50031894 0.021614553 0.6622661 -0.08458758
0002b0 35 dc 4d c0 54 09 66 be e8 a4 b4 be 63 ce 60 3e
       -3.2165654 -0.22464496 -0.35282063 0.2195373
0002c0 00 90 04 40 71 81 b0 3c b6 e5 aa 3e 35 e3 5b 3e
       2.071289 0.021546097 0.3337838 0.21473391
0002d0 1a e3 1d bf fe 42 77 3e 04 4b 22 c0 dd 3b 9f 3f
       -0.61674654 0.24146649 -2.5358286 1.2440144
0002e0 fc c3 58 be 98 8c 9f bf 53 d6 e6 3c ad 59 25 bc
       -0.21168512 -1.2464781 0.02817837 -0.010092181
0002f0 92 11 19 3f 79 35 b6 bf 91 f4 99 be bc 24 47 bf
       0.59792435 -1.4235069 -0.30069402 -0.7779043
000300 fc 87 d5 be 37 8f 2e 3f b3 71 84 bf 0c b5 d7 3e
       -0.4170531 0.6818728 -1.0347198 0.42130315
000310 85 be 17 3d ad ae 07 3f e7 05 36 3d e2 a0 02 3e
       0.037046928 0.5300091 0.044439223 0.12756684
000320 14 67 ff 3d e5 4f f9 bf 9d 2d 06 bf e7 8e 7b 3f
       0.124708325 -1.9477507 -0.5241335 0.98264927
000330 51 71 22 3f 65 78 96 3f a8 3e ed bb 9b 38 6b bf
       0.6345416 1.1755491 -0.007240135 -0.9188325
000340 2a de 30 3f 0d 67 8e 3e 22 f6 27 3f b7 8c 82 bf
       0.69088995 0.27812997 0.65609944 -1.0199193
000350 63 9c 83 be 5c 59 5c 3f cf e7 0d 3d 4b 63 c0 bd
       -0.2570525 0.8607385 0.034644898 -0.09393939
000360 b0 8d 99 be c9 42 dc 3e ec 1b 20 bf e0 75 7e bf
       -0.2999091 0.43019703 -0.62542605 -0.9939861
000370 83 51 df bf 98 f1 c0 bf c9 e7 37 bf 6d 06 8f bd
       -1.744675 -1.5073729 -0.7183805 -0.069836475
000380 8c da aa bf 88 84 c8 bc c2 74 28 3f 8b b5 88 3f
       -1.3347945 -0.024477258 0.6580316 1.0680403
000390 29 51 a2 3f ea 16 15 bd cb b6 f2 bd 81 22 54 c0
       1.2681018 -0.036398806 -0.11851271 -3.314606
0003a0 2f 42 8b 3e 67 de 8d bf e4 d7 0c bf 66 57 73 bf
       0.27198932 -1.1083497 -0.5501692 -0.95055234
0003b0 4f 1f 0f 3d 67 cc 30 bf 4b 35 55 3e c8 1a f7 3d
       0.034941968 -0.69061893 0.20821111 0.12065655
0003c0 63 51 ee be 7a 10 aa be 16 74 ac bf d7 f3 fd 3e
       -0.46546468 -0.33215696 -1.3472927 0.49600098
0003d0 ff a8 85 3f 03 3e b5 be ca 63 64 bf 7a 56 75 3e
       1.0442199 -0.35398874 -0.89214766 0.2395877
0003e0 d6 4d 0e 3e 83 38 b9 3d 0c 21 a0 3e 4c 87 7b 3f
       0.1389688 0.09043982 0.31275213 0.9825332
0003f0 84 3c 1d 3f 83 57 25 3f bc 40 13 3f 6a 55 0f 3f
       0.61420465 0.6458666 0.5752065 0.55989707

fc2.bias f4 [320]
000000 45 55 d1 3f 07 24 c8 bd 85 64 51 3f ea e3 32 3e
       1.6354147 -0.09772497 0.81794006 0.17469755
000010 b4 1b 14 bf e8 95 ea be b3 b2 be 3f 61 e2 0f c0
       -0.5785477 -0.45817494 1.4898285 -2.248192
000020 e4 2a 94 3d 6d 4f 1e bf 1f 7e 8c 3e a5 27 42 3e
       0.07234743 -0.61839944 0.27439973 0.18960436
000030 be 2f 00 bd 23 52 fd 3d 5e 2c a6 bc 3c 42 ae 3f
       -0.03129553 0.12369182 -0.020284828 1.3613963
000040 be ca e0 3e 3b d8 8a 3f 49 a5 54 3e 2c c7 9e 3f
       0.4390468 1.0847238 0.20766176 1.2404532
000050 45 2d 3a bd c5 10 0c 3e 44 09 8a 3e 8d 26 5f 3f
       -0.04545333 0.13678272 0.26960194 0.871682
000060 e0 8e 86 bc ed 76 a7 be e7 3c 7c bd 06 e1 87 bc
       -0.01642555 -0.3270792 -0.06158152 -0.016586792
000070 2c bb c2 3f 6f d5 9d 3f 99 5d f8 3e 12 75 95 3f
       1.521337 1.233076 0.4850891 1.1676352
000080 3e 10 bf bf 65 b5 06 bd d4 41 ff bc c1 ef 95 bf
       -1.4926832 -0.032887835 -0.031159319 -1.1713792
000090 94 32 ba be e1 8e 81 bf 77 30 74 3f 66 83 00 bf
       -0.36366713 -1.0121728 0.9538645 -0.502005
0000a0 77 37 89 bf b5 7c b0 bf 36 26 f8 3d 02 36 86 3f
       -1.0720052 -1.3788058 0.12116663 1.0485232
0000b0 6b 8b 34 bf 4e 50 9f be 3c c9 e4 bc 63 20 94 3d
       -0.70525235 -0.31115955 -0.027927987 0.0723274
0000c0 ff bc 47 3f ab 31 46 bf 56 85 3f be 80 a8 de 3f
       0.7802276 -0.7741954 -0.18703207 1.7395172
0000d0 f6 50 68 bd a7 8a 0f 3e e7 8e f2 be ee d9 5c 3f
       -0.056717835 0.14017735 -0.4737465 0.86270034
0000e0 7e 0a 31 3e bb ea 92 3d d0 e3 1d bd 0d 23 34 bf
       0.17289159 0.071736775 -0.038547337 -0.70365983
0000f0 c0 be ad 3e e0 39 73 3e c6 e3 ad 3e ef 64 e0 bd
       0.33934593 0.23752546 0.3396284 -0.109567516
000100 9d 81 09 bf 80 a9 a4 bf 83 56 90 3f 8c e9 d0 bf
       -0.537134 -1.2864227 1.1276401 -1.6321273
000110 ef e3 e3 bd b4 4d 88 bd 5c ab 90 3e e1 52 dc 3f
       -0.11127459 -0.06655446 0.28255737 1.7212793
000120 3d ba 37 bd e4 d7 34 3f 95 0a 7c bf 33 2e 6a bc
       -0.044855345 0.7064192 -0.98453647 -0.014293241
000130 c4 4b c6 3e 41 65 7f 3f ef 5e 73 be aa e6 ae bd
       0.3872968 0.99763876 -0.23766683 -0.085400894
000140 53 68 af 3f fb 07 95 3f d3 11 58 3e 1b 36 5f bd
       1.3703712 1.164306 0.2110055 -0.05449496
000150 f7 81 da 3c f9 a8 db bc 4b ba 34 3f bb e9 7f bf
       0.0266733 -0.02681397 0.7059676 -0.9996602
000160 a8 c2 b1 3e 92 e1 e8 bc 8d 34 7f 3f 55 be bc 3f
       0.34718823 -0.028427873 0.9968956 1.4745585
000170 b7 0c 3c 3f d7 a5 77 3f 7c c7 4a bf 7f cd 72 3d
       0.734569 0.96737427 -0.7921064 0.059278008
000180 6e 50 1f 3f 37 6a 0b 3f 17 34 79 bf 77 ca 5b bd
       0.622321 0.54458946 -0.9734511 -0.053659882
000190 62 43 5a bf 7d 89 01 bf 6a 48 df be c9 dc ad bd
       -0.8525907 -0.50600415 -0.43609935 -0.08489377
0001a0 ef 58 16 bf d7 6e 8e b9 3e 0d 0a 3d ef 1c d0 3f
       -0.5872945 -0.00027166933 0.033704035 1.625883
0001b0 46 d6 98 40 99 0b a2 be ac 50 b0 bc c1 5c e8 be
       4.7761564 -0.31649473 -0.021522842 -0.45383266
0001c0 80 97 b4 3f 5d 1c 18 3e 53 02 92 bf 8b 04 34 be
       1.4108734 0.1485457 -1.1406959 -0.17579858
0001d0 fe 96 3c be 0a dd d3 3d 3e b4 0b 40 a7 5c b3 bb
       -0.18416974 0.10344894 2.182876 -0.0054736915
0001e0 b8 80 1e bd 1c 98 68 be 19 f2 9c bd ff a3 ca 3f
       -0.038696975 -0.22714275 -0.07663364 1.5831298
0001f0 3c 16 be 3c a3 3f 5e 3e 52 eb 29 be fb 71 f6 3e
       0.023203962 0.21703963 -0.16593674 0.48133835
000200 8f 7a 91 bd cd 5a 0c bc 7f d7 ad 3f 9e 26 bb 3e
       -0.07103454 -0.0085665705 1.3581389 0.365529
000210 61 f0 9c be 44 cd 1e 3f ed f3 78 bd 5b c9 bf bc
       -0.30652145 0.6203196 -0.0607795 -0.023411443
000220 85 a6 48 3f 9a 9f 28 3f f2 9b 4b 3f 18 22 86 be
       0.7837909 0.6586853 0.7953483 -0.26197886
000230 31 33 cc 3f 0a 0c ef be 2b 18 53 bd e0 c0 c3 bd
       1.5953122 -0.46688873 -0.05153672 -0.09558272
000240 0b 27 de bc c3 9f 8d be 85 4e a9 3e aa 89 94 be
       -0.027118227 -0.2766095 0.33067718 -0.2901128
000250 e5 01 3b 3e f6 d0 d2 bf 1e 72 8d bf fb ba 56 bd
       0.18262441 -1.647002 -1.1050451 -0.052424412
000260 82 77 8e b8 68 aa 3c bf 49 5a 3b 3f d1 53 ed bd
       -6.793348e-05 -0.7369752 0.7318464 -0.11588252
000270 06 3c 3e bc 76 46 15 40 2a 29 5f 3b e6 c3 91 be
       -0.01161099 2.3324256 0.0034051635 -0.2846977
000280 6c e7 7f 3d 38 1b fb be d7 aa a2 3f ac ff 5b bd
       0.06247656 -0.49044204 1.2708386 -0.053710625
000290 c0 b6 1b be 15 92 01 be 2e 16 9c be ea 61 8e 3f
       -0.15206432 -0.12653382 -0.30485672 1.1123631
0002a0 0e 52 fc 3f 49 63 6b bf c3 42 b5 bd fa 26 c6 3e
       1.9712541 -0.9194837 -0.088506244 0.38701612
0002b0 d7 ff 3e be 96 44 02 bf 4b 9b 78 bf b4 a5 64 bd
       -0.18652283 -0.50885904 -0.9711196 -0.05582209
0002c0 58 9c b4 3d f4 67 cb bc 09 4e 70 bf 7d 3e e7 bd
       0.08818883 -0.024829842 -0.9386907 -0.112912156
0002d0 d0 62 b7 3e b5 bb c8 be bc 19 9c 3f 73 38 9a 3e
       0.35817575 -0.3920571 1.2195354 0.30121192
0002e0 55 11 7d 3f b1 73 8d bd cb 09 d3 be e0 5f f6 3f
       0.9885457 -0.06906832 -0.4121841 1.9248009
0002f0 4f e0 22 3d 95 b4 22 3e f5 cc d1 3f f2 4e 27 bd
       0.0397647 0.15889199 1.6390673 -0.040846772
000300 c7 23 96 bd 48 6e 90 3c 32 7c bc 3f cd 0e bf 3d
       -0.07331043 0.017630711 1.4725401 0.09328995
000310 e1 6b ee 3e 23 ea b1 bd 13 a1 85 bd 03 68 97 bf
       0.4656668 -0.08687236 -0.06524863 -1.1828617
000320 59 31 54 40 51 4c 70 3d 99 bb fd be 75 31 00 be
       3.315512 0.05866653 -0.49557188 -0.12518866
000330 f9 3c 7f be c5 01 b9 3e fc 92 84 bf 03 2c a8 bc
       -0.24925603 0.36134163 -1.0357356 -0.020528799
000340 96 25 13 3f 4e 27 87 3e 73 b4 a4 bf 9a c4 ea 3f
       0.57479227 0.26397175 -1.2867569 1.8341248
000350 3d 5a 6d bf 2c ef ab 3d f4 b7 5c 3e 68 59 9f 3f
       -0.9271582 0.08395228 0.21554548 1.244916
000360 04 31 b1 3d b8 40 a4 3d e6 5a ad be 65 f1 9d be
       0.08651927 0.080201566 -0.33858413 -0.30848232
000370 4b b4 bf bf af 4f 5f 3f 28 4a 90 bf f8 df 02 3e
       -1.4976896 0.8723096 -1.1272631 0.1278075
000380 e8 e7 72 3d a8 30 47 bf eb 8a 7c 3b c0 5d 9c bd
       0.059303194 -0.7780862 0.003853495 -0.07635069
000390 08 b2 3c bf a6 16 d4 bf 0c b9 34 3f 6d 8c 1f 3e
       -0.73709154 -1.6569412 0.7059486 0.15580912
0003a0 95 72 55 bc a8 36 53 bf 88 9a 42 be 41 8a f2 3b
       -0.013027807 -0.82505274 -0.19004261 0.007401735
0003b0 bb 01 a2 be a3 f2 5e bd 73 0c 13 be 13 56 1b 3e
       -0.31641945 -0.054430615 -0.14360218 0.15169553
0003c0 75 39 d9 bd 42 c5 11 be c5 69 09 bc f2 e6 03 3e
       -0.10606662 -0.14235404 -0.008387034 0.12881067
0003d0 11 62 b2 bd 02 bc 83 bd 9a fd 7d 3e 2e b0 67 bd
       -0.08710111 -0.06432344 0.24803773 -0.056564502
0003e0 1c 06 2c 3d d0 84 df 3e fd b1 4c 3f 18 90 a4 3e
       0.041998014 0.43656015 0.7995909 0.32141185
0003f0 1a 9c 86 3f c3 19 12 40 7e a2 23 bd e5 5d b5 bf
       1.0516388 2.2828224 -0.039949887 -1.4169279

fc3.weight f4 [80, 320]
000000 9a ca 30 3d a4 03 59 be 40 c9 88 bf e2 64 a5 3d
       0.043161966 -0.21192795 -1.0686417 0.080758825
000010 f5 24 5e be f6 9c 47 be d5 be 41 bf 69 6d 30 3d
       -0.21693785 -0.1949347 -0.7568181 0.04307309
000020 f1 88 64 bd 74 b2 c2 3d cb e2 8b bf ae 62 0c bf
       -0.05579466 0.095066935 -1.0928587 -0.54838073
000030 0c a1 ae bb 5d 5c bc bb 7e 14 e9 bd 04 fe 8b bb
       -0.005329257 -0.0057483152 -0.11380862 -0.0042722244
000040 53 77 73 3f 19 ab 54 bc 11 d0 16 be a3 b3 99 be
       0.9510395 -0.012980246 -0.14727809 -0.30019864
000050 c3 9b 6d bc f5 ee 26 3f 7a d2 45 3b 4f 69 90 3e
       -0.0145024685 0.6520837 0.0030185268 0.28205344
000060 de 69 f8 bc a0 7c 8c 3d d9 a5 1b be a6 de 6e 3e
       -0.030323919 0.06859708 -0.15199985 0.23327121
000070 4a cd 30 bd 44 97 e3 be c6 a6 83 3e d4 06 19 3f
       -0.04316453 -0.44451344 0.25713176 0.59776044
000080 52 7b 8b 3d 8c 3b 10 bc 1d 22 83 bd db 42 bd be
       0.06810631 -0.00880326 -0.06402991 -0.3696507
000090 84 fe f2 be 17 91 b3 3e 15 c8 83 be 17 0b 8d be
       -0.47459805 0.35071632 -0.25738588 -0.27547523
0000a0 ef 01 85 3e 13 9d 37 bd d5 42 91 3d 24 2f b1 bd
       0.25978038 -0.044827532 0.07092825 -0.086515695
0000b0 7c 37 8c be 96 81 be be 18 f4 f3 bf c0 1f 7a 3c
       -0.2738608 -0.3720824 -1.9058867 0.015266359
0000c0 d0 43 15 be 4d 71 42 be b6 24 40 3e c0 37 4f be
       -0.1457665 -0.18988533 0.18764004 -0.2023611
0000d0 8b 92 03 3d a2 68 c5 3d 4d 07 c6 be fc 89 4f 3e
       0.032122176 0.09639098 -0.38677445 0.2026748
0000e0 da ad a7 bd ca 37 b8 3e db e4 f6 bc 6d 5f df be
       -0.081874564 0.35980064 -0.030138424 -0.43627492
0000f0 d1 0a 6b 3e e3 97 55 be c8 5f 79 3e 5c 75 02 be
       0.22953345 -0.20858721 0.24352944 -0.12740082
000100 47 70 7f bf 5c 6f 5a 3e 75 61 6a bc 18 b1 e3 bd
       -0.99780697 0.21331543 -0.014305462 -0.11117762
000110 8d 7c a5 3d 5b 4c c0 3c 87 ee f3 bf 74 49 21 be
       0.08080397 0.02347391 -1.9057168 -0.15750676
000120 69 29 8a 3d 45 5b 35 bd 1f 11 1d 3e 1e c1 41 bc
       0.067461796 -0.044276495 0.15338562 -0.011825828
000130 cc 7b 02 bf 0e da 72 3d e8 31 a0 3d 6f c8 87 b9
       -0.5097015 0.059289984 0.07822019 -0.0002589854
000140 d5 f6 84 3e 1d 61 34 be 32 18 bb 3e 0f d6 76 3f
       0.25969568 -0.17615171 0.36541897 0.9642038
000150 a3 5e 92 3e 9b 5d b5 bb 2b 58 70 bf d9 b6 0f bf
       0.28587827 -0.0055348403 -0.93884534 -0.5613838
000160 4d 49 ec bd 9f 1f 38 bd 5b a2 10 bd b9 4f a9 bc
       -0.115374185 -0.04495203 -0.035311084 -0.020667898
000170 3a f7 d8 3e e4 55 13 3f 1b e2 1f be b5 5b 9e 3e
       0.4237612 0.57552934 -0.15613596 0.30929342
000180 c9 76 d3 bc ec f2 ff 3d de 32 2c bf d5 66 76 3d
       -0.025813477 0.124975055 -0.6726512 0.060156662
000190 7b cf c3 3e 08 df 1d bf 0f df 9e bc d3 d4 06 bf
       0.38244233 -0.61668444 -0.019393472 -0.52668494
0001a0 09 91 0c be f5 e7 3a be 33 e7 6f bf f2 40 06 bf
       -0.13727202 -0.18252547 -0.93712157 -0.5244285
0001b0 59 d7 12 3f 0a 6a 36 be e5 ba e9 3c c7 de 86 bf
       0.57359844 -0.17813888 0.028531501 -1.0536736
0001c0 3a 96 8a be 0c 22 54 be fa e2 5e be b6 e7 22 be
       -0.2706774 -0.20716113 -0.21766272 -0.15908703
0001d0 62 a9 99 bb b6 78 cb bf 1b 2b 72 3d 15 e2 6e 3e
       -0.0046893815 -1.5896213 0.05912314 0.23328431
0001e0 b8 ce 0a 3d e4 35 e7 3e 7b 9b 7d 3d ab b8 ee be
       0.03388855 0.45158303 0.061915856 -0.46625265
0001f0 5e 7d 0c 3d af fd 24 bf 82 ba 87 3d ae 3a 86 3e
       0.034299247 -0.6444959 0.066273704 0.26216644
000200 d5 0b b0 bd 3c 8d 58 3d eb 4c d2 3e 8d fd c2 3e
       -0.08596007 0.052869067 0.4107431 0.3808407
000210 2e 71 1b bf 4e bc 30 3d f4 1a 3c 3c 05 44 a7 bb
       -0.60719573 0.04314833 0.0114810355 -0.005104544
000220 77 7c 7a 3e 6e c3 cb be 7a ee c4 3e d5 f8 2b bf
       0.24461542 -0.3979754 0.38463193 -0.6717656
000230 ea 16 02 bf 0e 0e bc 3d 22 ef 72 bc a4 a6 b3 bc
       -0.50816214 0.09182368 -0.0148275215 -0.021930046
000240 fa 8c 3f bf 07 08 15 c0 52 dd 58 3e 36 32 94 bc
       -0.7482449 -2.328615 0.21178177 -0.018090349
000250 4a 1c ef bc 1a 22 b5 bd 2a 45 a4 bf c1 98 3a 3d
       -0.029188294 -0.08844395 -1.2833607 0.045555834
000260 4d 75 c1 3c d3 48 11 be 2f 55 88 3d f3 f9 e4 3d
       0.023615504 -0.14187936 0.066568725 0.111804865
000270 d2 a2 25 3d 5a cd 9e 3c 8a 3e 3d bf 6e 65 f9 3e
       0.04043848 0.019385029 -0.7392355 0.48710197
000280 56 2a 45 3e b7 0f c5 bf 4d c4 52 be eb 0a 33 3c
       0.19254431 -1.5395421 -0.20582695 0.010927896
000290 e0 fb 1e 3e d8 ff c0 bd 97 c4 91 bf cc 35 13 bf
       0.1552577 -0.09423798 -1.138812 -0.5750396
0002a0 24 4d dd 3e 13 7c 22 bd 77 31 70 bf 50 6a 47 be
       0.43222916 -0.039669108 -0.9382548 -0.19474149
0002b0 ec 1e ed bc 24 54 f3 be af 2c 50 bd a0 c3 3a bd
       -0.028945409 -0.47525132 -0.050823864 -0.04559672
0002c0 4b b2 4f be 07 3d 20 bc cf 17 7f be a7 ee 7c 3e
       -0.20282857 -0.009780175 -0.24911426 0.24700414
0002d0 0e 74 2f bf c2 eb 05 bf fa fa d7 3d b1 fa 0f 3e
       -0.6853646 -0.5231286 0.10545917 0.14060475
0002e0 a0 44 0e be d6 5c 26 bd 8d 93 80 3c 5b 5e 25 3c
       -0.13893366 -0.04061588 0.015695358 0.010093297
0002f0 b3 fe 44 be 7b 68 e5 bc 20 83 b5 3c 50 fa 97 bc
       -0.19237785 -0.028003922 0.022157252 -0.018551975
000300 60 a6 5d 3d 32 68 2a bf 92 08 08 3f 66 61 ca 3e
       0.054113746 -0.6656524 0.5313808 0.39527434
000310 57 e2 b6 bd d0 7b d7 3e 3c 0a e7 bc ab 51 1c be
       -0.0892989 0.4208665 -0.028203122 -0.15265529
000320 2f 6e 8c 3d 02 7d 85 bd 92 64 aa 3e dd 6f 08 bf
       0.06856953 -0.06517984 0.33279854 -0.5329569
000330 c0 07 46 be 1f 95 a6 be 3f 26 fc 3c ee bd 03 3d
       -0.19338894 -0.32535645 0.030779956 0.032163553
000340 40 0b f4 bb 91 31 74 be 9a 2f db 3e 67 e5 23 be
       -0.00744763 -0.23847033 0.42809755 -0.16005479
000350 f4 61 3b be 1c 08 14 be eb 37 a3 be ee 90 fa be
       -0.18299085 -0.14456218 -0.318786 -0.48938698
000360 55 fa a2 3c 0d 48 6a bd b5 76 64 3e be 3b 01 3f
       0.019894758 -0.05719762 0.22310908 0.50481784
000370 35 c7 ed be c7 a7 d5 be 6c 32 2c bf 8c f6 9d be
       -0.46441045 -0.41729566 -0.6726444 -0.30852163
000380 06 19 02 bc b1 01 3a be b3 2e e9 bc bd a4 24 3d
       -0.007940536 -0.18164708 -0.02846465 0.04019617
000390 be 69 ea be b1 f0 b4 bd 07 0d bb 3e be 3e 82 3c
       -0.457838 -0.08834971 0.36533377 0.015899058
0003a0 7b 82 3d 3d f6 f1 23 bd 2d 57 1f bf c8 81 36 3d
       0.046267014 -0.040025674 -0.62242395 0.044557363
0003b0 d8 b6 34 bf 71 14 38 3e 4d 94 67 3e c0 f3 8b 3e
       -0.705915 0.17976548 0.22615166 0.27334404
0003c0 b8 83 31 3f 29 56 74 bd 54 3f f5 3c 57 27 93 be
       0.6934161 -0.05965248 0.029937424 -0.2874095
0003d0 e9 c8 03 3c 23 eb 09 bd 82 39 cd 3e 0b 13 4a be
       0.008043506 -0.03367151 0.40082937 -0.19733827
0003e0 56 88 d1 3d 5c 43 21 bf c3 b0 cd bd e2 3e 89 3e
       0.10231082 -0.6299341 -0.1004348 0.26805788
0003f0 9a 52 e3 3d 3c ac 78 be 5b e3 11 3c 3b 22 a1 be
       0.110997394 -0.24284452 0.008904303 -0.31471428

fc3.bias f4 [80]
000000 8a 53 ba 40 32 81 2d 40 96 a4 ca 3f 31 68 88 40
       5.8226976 2.7110105 1.5831478 4.2627187
000010 64 6a c9 3f f1 41 54 40 5c 50 98 3e 55 55 27 40
       1.5735593 3.3165247 0.2974881 2.6145833
000020 6d 70 48 40 5a c3 3e 40 46 22 7f 40 68 2c 20 40
       3.131862 2.9806733 3.986467 2.5027103
000030 4d e9 a3 40 41 af 2b 40 4c e5 9f 40 78 f0 42 40
       5.122229 2.6825716 4.9967403 3.045927
000040 a6 ef 8e 40 36 c9 59 40 25 58 c2 3f cf 85 07 40
       4.466754 3.402906 1.518315 2.117542
000050 97 0f 86 40 9e 11 3f 40 98 43 27 40 b5 38 7a 3f
       4.189403 2.9854503 2.6135006 0.9774278
000060 4e 08 a4 40 ae 3c ce 3f 7a 41 11 40 31 0d 9a bd
       5.1260138 1.6112268 2.2696214 -0.07522047
000070 75 61 22 be 72 ac 11 40 d2 0f 56 40 43 e1 80 40
       -0.1585749 2.2761502 3.3447156 4.027498
000080 a4 85 35 3f 40 8d d7 3f 4f 63 1f 40 fa 27 20 40
       0.70907044 1.6839981 2.4904363 2.50244
000090 b7 fa 02 3f a9 e2 6f 40 fa 79 e0 3f 69 be 46 40
       0.5116381 3.7482092 1.7537224 3.1053717
0000a0 d1 35 87 40 0e a0 ec 3f 6a d4 49 40 41 bf 92 3f
       4.2253194 1.8486345 3.1535897 1.1464616
0000b0 d9 34 c6 3f f9 ea 18 40 f4 0d 18 40 27 40 d7 3f
       1.5484878 2.3893416 2.3758516 1.6816453
0000c0 03 e3 20 3f 39 34 26 40 25 1e b3 3f f5 75 80 40
       0.6284639 2.5969374 1.3993574 4.014399
0000d0 48 f4 6e 40 fa 99 5a 40 ac 04 84 40 85 d1 2e 40
       3.7336597 3.415648 4.1255703 2.731538
0000e0 05 70 f6 3f 54 37 66 40 60 4d 42 40 3c 67 25 40
       1.9252936 3.597127 3.0359726 2.584426
0000f0 ce 6d 97 3f 0c 24 25 40 64 e2 0d 40 56 13 09 40
       1.1830385 2.5803251 2.2169428 2.1418052
000100 1f 49 0e 40 7d 71 f1 bd da 58 dc 3f 52 81 5c 40
       2.223213 -0.11789224 1.7214615 3.445393
000110 4e 8a e9 3e 91 30 6b 40 b4 91 9b 3f a4 8f 1d 40
       0.4561333 3.6748393 1.215384 2.4618921
000120 3c 0d a5 3f b3 6d f8 3f 11 a9 ab 3f 52 c0 42 40
       1.2894664 1.9408478 1.341097 3.0429883
000130 19 a9 19 40 ea 90 0d 40 10 f9 12 40 74 f1 f7 3f
       2.400946 2.2119699 2.2964516 1.9370561

fc4.weight f4 [3, 80]
000000 ae 70 e5 bc dd ad 33 3c 67 fe a8 3c c7 18 0a 3d
       -0.028007831 0.010966745 0.020629121 0.033715036
000010 fc 08 31 bd 20 8e 40 3d 23 25 19 3d f5 91 8f 3c
       -0.04322146 0.04701054 0.037388932 0.017525652
000020 0a 05 e2 3c 79 1a ae 3c 11 db ff bb ef a2 aa 3c
       0.027590293 0.021252858 -0.007808097 0.020829646
000030 83 16 4a 3d 20 c1 c4 3c e1 ed 75 3d e2 42 98 3c
       0.049337875 0.02401787 0.060041312 0.01858658
000040 3f 4d 03 bd 20 ed 80 3c 0e 9d 82 bc 27 eb c5 bc
       -0.03205609 0.01573807 -0.01594403 -0.024159981
000050 ad 0f 02 3d 08 3c 07 bb 30 87 06 3c 97 d1 0f 3b
       0.03175323 -0.0020635147 0.008210942 0.0021944994
000060 fd 41 ac 3c eb 61 91 bc 72 59 af bc db 48 bf 3a
       0.02102756 -0.017746886 -0.021404956 0.0014593856
000070 42 8d d0 3c 8c 1b 3c 3d 9c 71 51 bc 67 e5 1b bd
       0.025457982 0.04592471 -0.012783434 -0.038060572
000080 ae 8b 8a bc a9 d6 39 3c 91 97 23 bd b7 58 49 bc
       -0.016912308 0.011342683 -0.039939467 -0.012289218
000090 af aa fe 3c 23 57 14 3d 8c e6 23 bd 32 e6 fb bc
       0.031087248 0.036215913 -0.04001479 -0.030749414
0000a0 75 d0 40 3d 38 13 0f bd f9 dd 7e 3c 4c 43 08 bd
       0.0470738 -0.034930438 0.015555852 -0.033267304
0000b0 bc e1 18 3c 33 60 9c bc 9a a0 19 bd b8 91 20 3d
       0.009331163 -0.01908884 -0.037506677 0.03920147
0000c0 2b 1f 91 bc 55 c0 2a 3b 7e 26 b9 3c a6 6c 42 3d
       -0.017715057 0.002605458 0.022601362 0.047466896
0000d0 7a df 4d bd 89 e9 39 3c e7 45 43 3c 09 9c 01 bd
       -0.050261952 0.011347183 0.0119185215 -0.031642947
0000e0 27 b5 33 bc 0c 42 da 3c ce ff 2a bd 83 17 1e bd
       -0.010968483 0.026642822 -0.04174786 -0.03859664
0000f0 2c 73 6a bd 3c 24 fc 3a 8e c6 1d 3c 64 89 af 3a
       -0.057238743 0.0019236873 0.009629859 0.0013392386
000100 14 2c 56 bd 4d ff f7 ba 98 92 06 bd a8 73 bd 3c
       -0.05228813 -0.001892069 -0.032854646 0.023126438
000110 5b 7f d1 bc e8 2c e6 3c 92 0f c2 bc b0 0b cd bc
       -0.025573423 0.028097585 -0.023689065 -0.025029987
000120 e8 33 23 bd 4c f6 d2 bc 7b 52 0e 3d a7 5c 09 bd
       -0.039844424 -0.02575221 0.03474663 -0.033535626
000130 8d 1a d8 3b 21 6d 04 3d 86 06 a6 bb a5 73 e9 3c
       0.006594962 0.032330636 -0.0050666956 0.028497526
000140 5c 7a f2 bb 7d dc 26 bc 63 03 59 3d f5 01 21 3d
       -0.0073998403 -0.010184404 0.052981745 0.039308507
000150 05 8b 86 3c 84 e7 a9 bb 51 7b b7 bc b9 41 32 3d
       0.016423712 -0.0051850695 -0.022397669 0.04351971
000160 90 14 5f 3c 3d ab ef bc d4 69 3f bd e1 4e f6 bc
       0.013615742 -0.029256457 -0.046731785 -0.03006691
000170 30 f9 d1 bc b7 d4 14 3a 5c 60 b3 3c 85 c8 2f bd
       -0.025631517 0.0005677449 0.021896534 -0.04291584
000180 af 2a 1d 3d 17 ba a3 bc f3 4a b1 3c 40 3f 22 bd
       0.038370784 -0.019986195 0.021642184 -0.0396111
000190 53 85 0c 3d 85 2d 11 3d 69 a5 21 3d e0 da e9 bc
       0.034306835 0.0354438 0.039464388 -0.02854675
0001a0 3d a8 d4 3b 2b 7c f3 bc dd c2 0c bb c1 01 8e bc
       0.006489782 -0.029722294 -0.0021478452 -0.01733482
0001b0 dd 5c 2f bd f7 d9 78 3c e0 9e b7 bc 06 a4 fe 3c
       -0.04281317 0.015188686 -0.022414625 0.031084072
0001c0 a0 30 3f 3d e2 82 92 3c d1 66 c4 ba 9e 30 30 bd
       0.04667723 0.017884675 -0.0014984255 -0.043015115
0001d0 a9 ea 78 bc 66 2a bb bc b6 ce 03 bc 49 e0 d2 3c
       -0.015192666 -0.022847366 -0.008044889 0.025741713
0001e0 db 5a e0 bc c3 bd fb bc 7d c2 4c bd 79 48 0a bd
       -0.027387073 -0.030730134 -0.049990166 -0.03376052
0001f0 d2 a9 27 3d 2e 15 d8 bb 82 21 bc 3c 1d 9e 08 3d
       0.040933438 -0.0065943217 0.022965197 0.033353914
000200 04 02 2b 3d 98 5c 0e bd e3 1d c2 3c 15 89 06 3d
       0.04174997 -0.034756273 0.023695892 0.032845575
000210 ba 23 cc bc 1d 09 48 bd a3 f5 29 3d 33 a9 07 3d
       -0.02491938 -0.048836816 0.041494023 0.033120345
000220 58 c5 71 3c 13 27 1e 3d 54 f6 62 bc 3a ac de bc
       0.014756523 0.038611483 -0.0138526745 -0.027181733
000230 b5 02 07 3c 6f 1f 31 3d 6c e7 3e bd 68 e2 04 3d
       0.0082403915 0.043242868 -0.04660742 0.03244248
000240 d5 b7 8e 3c f2 bd 5d 3d 61 55 a4 bc d0 c3 44 3d
       0.017421642 0.054136224 -0.020060243 0.048038304
000250 79 27 ca bc ef f6 f0 bc 01 4d a7 bc 09 7c 39 3d
       -0.024677025 -0.029414622 -0.02042246 0.045284305
000260 17 d4 11 bb ad 7d 51 3c 7b 27 6b bc a3 8b 01 bd
       -0.002225166 0.012786311 -0.014352675 -0.03162731
000270 a4 0b 4c 3d 10 6c a4 bc 8c 87 40 3d 05 b6 03 bd
       0.04981579 -0.02007106 0.047004268 -0.03215601
000280 4c b2 39 3d 16 20 35 3d a8 7c 08 ba bf 9a 54 3c
       0.045336053 0.044220053 -0.00052065635 0.0129763475
000290 96 2e 85 bc be 96 e2 3b 2c a3 12 bc 9d 3c 84 3c
       -0.016257565 0.0069149425 -0.008950036 0.016142184
0002a0 be 01 26 3d ed d6 0d bd 54 67 c9 bc 07 5f a6 3c
       0.040529005 -0.034628797 -0.024585404 0.020308984
0002b0 b5 c9 ae bc 1f 03 24 3d 65 26 10 3c 4c ac 49 3c
       -0.021336416 0.04004204 0.0087982165 0.012309145
0002c0 96 d3 bc bc 09 59 27 bd 97 b5 22 bd 35 4b ea 3c
       -0.02305011 -0.040856395 -0.03972396 0.028600315
0002d0 6a dc 27 bd e1 a1 1e 3d 6c d1 cf bc 87 d7 19 3d
       -0.040981688 0.0387286 -0.025368415 0.03755906
0002e0 30 0a 4d bd ce f4 00 3d d2 fe 45 bd cd 2e 67 bc
       -0.050058544 0.031483464 -0.04833872 -0.014110279
0002f0 cf 22 01 bd 0d 11 4d 3c fc 52 5d 3d 21 1b 82 3c
       -0.031527337 0.012516272 0.05403422 0.015882077
000300 67 22 c0 3b bd 73 30 bd f0 07 d6 3c aa 8b 8b 3c
       0.005863476 -0.043079127 0.026126832 0.01703437
000310 e1 61 13 3d df fb e9 bc e6 3c 95 3c 37 a7 d0 3c
       0.035982016 -0.028562484 0.018217515 0.02547036
000320 ba 69 10 3c ad 70 92 bc ea e0 02 bd c1 9c 02 bb
       0.00881427 -0.017875994 -0.031952776 -0.0019929858
000330 ce b4 01 bd ba f9 6a 3d c0 28 5d bb 0a 91 34 3c
       -0.03166657 0.057367064 -0.0033746213 0.011020908
000340 e8 59 1a 3c 8d 04 d9 bc a0 6f 01 3d 31 61 17 bd
       0.009420849 -0.026491428 0.031600595 -0.036957923
000350 28 ad 0a 3d b2 c0 b9 3c 04 17 41 bd 9c 6c 55 bd
       0.03385654 0.022674892 -0.04714109 -0.05210553
000360 70 d9 42 bd 71 b9 8e bc 84 da c0 bc 65 1e b3 bc
       -0.047570646 -0.01742241 -0.023541696 -0.02186508
000370 13 42 6c bb 69 2f 13 3c 51 7c c8 bc 68 84 1b 3d
       -0.0036050125 0.008983471 -0.024473341 0.03796807
000380 ea 4b 76 3b 85 7f 56 bd 3d 5a 03 3d 7f f8 eb bb
       0.003758187 -0.052367706 0.03206848 -0.007201254
000390 96 d6 f6 bc 09 57 dd 3c 07 5a 33 bd 98 7a d4 3c
       -0.03013162 0.02701904 -0.04378703 0.025937364
0003a0 6f 9a cf 3c 3f 0f 20 3d e1 ef dc bc 4f cf d5 bc
       0.025342194 0.03907704 -0.026969852 -0.026099829
0003b0 c5 f8 2e 3c 7e 76 9a 3c cf 19 0f 3c fe b9 b8 3c
       0.0106794285 0.01885533 0.008734181 0.022549625

fc4.bias f4 [3]
000000 3a 93 68 3d d7 0d 41 3d dc 6b 73 bd
       0.05678103 0.04713234 -0.059429035
